best_causal_rel_gnn_model_gat.pt (torch, 678267 bytes, 29 tensors)

waveform_attention.attention.0.weight f4 [128, 15]
00000000: 075b 0b3e 9177 463c 7b95 3b3e 4143 dfbd
00000010: aa12 523e 566f 1abd a7b8 53be 1acc 4e3e
00000020: 74c2 19be 8928 dbbd 0b4c 6b3d 4aab 5a3d
00000030: f75e 6b3d dcf3 1a3c ee30 4ebd 932f 41be
00000040: 2161 763d 17a5 e73d 3dcb 26be 2e4d aa3d
00000050: 567d 27be 4c61 d7bd b9b3 793c 7bf8 3b3e
00000060: f350 2fbc 408b ae3c c6e0 453e 1630 653c
00000070: 8fd7 f33d ae06 5cbe 4abe 3abe 2812 383d
00000080: 9153 263d 169e a5bc 1e46 bc3d ac30 a4be
00000090: f9aa f33d 5960 4abe adee 82be 2fca 093e
000000a0: 1556 7c3d e86d 173e 60d9 2c3e 71f7 0c3e
000000b0: b915 93bd 3494 3e3c 3b8a 263e e0cd 2d3e
000000c0: 3193 de3d edbe e23d 0474 c03d edcc b2bc
000000d0: ff60 35be 7153 273e c53d b73d 8abd c03d
000000e0: 3eb8 80be af9c cbbc 34f6 da3c ba96 453e
000000f0: 3452 3c3e e347 24be ef85 4dbe 9cfe 56bd
00000100: fe6b 0cbe 136a a2bd 6c37 00be 3bf5 2ebe
00000110: 9fef 30be aa9c 6dbe 0fb1 313d fb82 043d
00000120: 9b19 dcbc 340a a3bd ca2b 0abe ed82 7bbd
00000130: c3f5 0fbe 488a 9abe 2ca0 acbd cc77 863d
00000140: 706d ae3d 6038 48bd 85c1 32be 9a8d a53d
00000150: 912e 90be c0b1 8dbe 051a 2c3e 4ad5 5a3d
00000160: 4eec 5b3e da7f 203e 0018 8f3e 37bc ab3d
00000170: 6c2b 173e a5df f3bd 7b46 3e3e e152 aabd
00000180: 08a6 8dbb 0f34 773e 5bb8 87bd 9340 64be
00000190: ec95 133e c5ac 6f3e fdf3 14bd 3879 2a3e
000001a0: 3b45 6fbe 5172 14bd d762 3abe 6ac7 053e
000001b0: 4ecb ba3d b0a9 193e 1073 60be 7d11 f53c
000001c0: 1699 103c 33fe 913e a93f 9b3d 05c6 863e
000001d0: 20c1 a43e bf16 a83c 4ddb 8e3e eb34 583e
000001e0: 8a9a 65be 0478 4ebc 1fce 65be 36e8 99be
000001f0: 2bcb bbbd 00bd 8bbe a3fa 82be 8542 60be
00000200: 5f45 323e 7cc4 05bc b5e9 62be fbf3 1d3e
00000210: a469 85bd 6fcf 75be c825 263e c568 4ebe
00000220: fbbf 683c bb9a 25be dad8 f53d baca 68be
00000230: 9d31 023e 476c 3c3c 1fc5 8c3e d5c9 d63b
00000240: d068 703b 4630 0ebd 9f47 123e 6efe 673e
00000250: ae61 c2bd 77fe a23e 68ae 283e 2cfa 9a3d
00000260: 63c3 a43e 7033 483d edde 7a3e e989 4cbe
00000270: fadb 29be 0ea8 fdbd ceca 3a3e 18fe fc3d
00000280: 135a f93d 5103 533e 217a e03c 30dd 833e
00000290: 1608 b93d fa59 7bbd 04e6 673e 6929 303e
000002a0: 68d6 463e e391 a2bd 289a 823d 2128 e93d
000002b0: 343c a43e bf7c c2bd c480 2fbe 6f76 b23d
000002c0: e1eb aa3e 3eca 023e 695e bcbc 0efb 413e
000002d0: 5b99 8cbe 8e15 5fbe 26be 41bd 11bf 8dbe
000002e0: a3be b5bd 5c30 143e ed2e 21be 4eff 2bbd
000002f0: fd4f 9fbe 6911 78be 8311 cfbd 9ebf 2bbc
00000300: d054 1a3e d1c7 4fbd 4673 d13c af6a 233e
00000310: a953 77be 1408 cbbd 49fe 94be ea51 a2bd
00000320: bda9 c5be 77f7 eabd d991 0e3e a61e 5dbe
00000330: 4a9f 77bd dc04 ddbd 8319 47bd d840 3bbe
00000340: 1ec8 9e3d 6741 47be 82bf a9be 50f6 86be
00000350: aa05 9dbd e7fb 65be e7a3 01be f27e 973d
00000360: 1ec0 373e 3a58 09be c220 223d eb1f 643e
00000370: d9d1 663b bf9f 0c3e 5915 47be cf07 003d
00000380: e68f 51be 7875 7fbe 3649 b3bd aac3 3cbe
00000390: 9f36 a6be c1f7 abbd 31d2 92be a214 e2bd
000003a0: 2b2d 02be b79a 78be 3411 073e 346a a13c
000003b0: f24a 153e 850f 263c 1cc0 463c 0329 b63d
000003c0: 36b8 3c3e 24dd cfbc 31b3 2b3e e464 b23d
000003d0: 5801 80be 6487 06be 6f9e 3cbe 6df0 bcbd
000003e0: 9776 543c e8a5 bf3d af68 82be b531 3c3e
000003f0: 09ce f03d bf05 103d 80f6 42be 3f7a 783e
0.13608943 0.012113468 0.18318741 -0.109014995 0.20514932 -0.037703834 -0.20675908 0.20195046
-0.15015584 -0.10701091 0.057445567 0.05338601 0.057463612 0.009457555 -0.05033963 -0.18865804
0.060151223 0.11310785 -0.16288467 0.08315502 -0.16356406 -0.10516605 0.015240603 0.18356507
-0.010700452 0.021306634 0.19324026 0.013988515 0.11906349 -0.21486923 -0.18236652 0.04493919
0.04060704 -0.020216983 0.09193061 -0.32068384 0.11897845 -0.19763316 -0.2557272 0.13456033
0.06160553 0.1478802 0.16879797 0.13766266 -0.07181878 0.011632014 0.16263668 0.16973066
0.10867918 0.110715725 0.09397128 -0.021826232 -0.17712782 0.16340424 0.089473285 0.09411152
-0.25140566 -0.024854986 0.026728727 0.19295779 0.18390733 -0.16043048 -0.20070623 -0.05248891
-0.13713071 -0.07930388 -0.12521142 -0.17085735 -0.17278908 -0.23204294 0.043381747 0.032351475
-0.026867678 -0.079609305 -0.13493267 -0.061404157 -0.14058594 -0.30183625 -0.08428988 0.06565818
0.08516967 -0.04888189 -0.17456634 0.08083649 -0.28160527 -0.27674675 0.168068 0.053426065
0.21476862 0.15673772 0.27947998 0.083855085 0.14762658 -0.11907891 0.18581574 -0.08316589
-0.004322771 0.24140953 -0.0662696 -0.22290258 0.1441266 0.2340575 -0.036365498 0.16647804
-0.23366253 -0.036241833 -0.18201767 0.13064352 0.091208085 0.15006137 -0.21918893 0.029915566
0.008825561 0.2851425 0.075805016 0.26322952 0.32178593 0.020518659 0.27901688 0.21113937
-0.22422233 -0.012601856 -0.2244191 -0.30059975 -0.091696106 -0.27292633 -0.25581846 -0.21900375
0.17409275 -0.008164521 -0.22159465 0.15425102 -0.0651429 -0.24004911 0.1622535 -0.20157154
0.014205928 -0.16172306 0.12004252 -0.22733584 0.12714238 0.011500425 0.2749414 0.006554822
0.0036683567 -0.034714006 0.14285134 0.22655651 -0.09491287 0.31834766 0.1647278 0.07567248
0.32180318 0.04887718 0.24499102 -0.19974484 -0.1658782 -0.123855695 0.18241426 0.12353152
0.121753834 0.20606734 0.027401986 0.2575469 0.090347454 -0.061365105 0.22646338 0.17203297
0.19417727 -0.07937982 0.06377059 0.11384607 0.3207718 -0.0949645 -0.17138964 0.08713996
0.33383086 0.12772462 -0.022994237 0.18943426 -0.2746075 -0.21785566 -0.04730048 -0.27684835
-0.08874252 0.14471573 -0.15740557 -0.041991524 -0.31115714 -0.24225391 -0.10110762 -0.010482697
0.15071416 -0.05072767 0.025567662 0.15958665 -0.24153008 -0.0991365 -0.29100254 -0.0792578
-0.38606063 -0.114729814 0.13922824 -0.21593723 -0.060454644 -0.107919425 -0.048608314 -0.18286455
0.07753013 -0.19458543 -0.3315392 -0.26359797 -0.07667096 -0.22459374 -0.1266018 0.0739726
0.1794438 -0.13412562 0.03958202 0.222778 0.0035220294 0.13732813 -0.19441737 0.031257447
-0.20465049 -0.24947155 -0.08754198 -0.18434015 -0.32463548 -0.08396865 -0.28675988 -0.11039092
-0.12712543 -0.24277769 0.13190156 0.019703962 0.1457937 0.010135536 0.012130763 0.08894541
0.18429646 -0.025374003 0.16767575 0.087106496 -0.25001025 -0.13137585 -0.18419813 -0.09225545
0.012967727 0.09357816 -0.25470492 0.18378337 0.11758048 0.03516173 -0.19039345 0.24265383

waveform_attention.attention.0.bias f4 [128]
00000000: d334 263e efd4 6fbe ef9b 06bc ebe7 33bd
00000010: 641a fb3d 373b 7cbe b368 a0bd fd3d 17be
00000020: f0c3 013e 90ba 07bd 5649 873e 03e8 7f3e
00000030: 9d75 893c e4a2 533e 400e eb3d a289 99bc
00000040: 73c3 a5be aaef 91be 00c8 7a3d cf0e 85be
00000050: e815 8fbe 3345 8b3d 6388 373d 5379 5cbe
00000060: 4f82 48bc 85ca bebd 26a7 4d3e 1b87 69be
00000070: 4399 9dbd 6249 16be fd02 2b3e 4dba 76be
00000080: 45c3 0abe 91ab 81be 7a95 47be 65d0 01be
00000090: 33c1 a33d 5f13 083e bbb2 1e3e a1eb df3d
000000a0: 9011 cbbc 60c6 a1be ede8 443d 9100 273e
000000b0: 3ae1 103e ab4d 033e 3ce6 7cbe 431a 3b3d
000000c0: 2f43 893e 3b1f 413e d0ba 91be e963 ba3d
000000d0: f381 073e b2ca cfbd 88dc 13b9 e43b bfbd
000000e0: 08c7 44bd f982 e13d d44d 00be d602 283d
000000f0: 3e7f 5ebe b503 69be f0d1 40be f554 4b3d
00000100: 77b3 783e be76 16be 2379 debd 8527 363d
00000110: 2c47 a3bc 9fc1 343e 600d 673d b6b6 543e
00000120: 9015 75be 7a1c 783d d3ac a63d a730 adbd
00000130: 5126 cfbd a027 0f3e db90 51be cf3f 4e3e
00000140: 5bcb aa3e 3db2 a0be 03b0 03be f9e5 5dbe
00000150: 3323 213d f96a 81bd 29aa f1bc 13e1 84be
00000160: 69bc 643c da3f 8e3e e1ba 56bd e859 cbbc
00000170: fef3 f7bd 9649 87be a3bf 203e 0713 f23c
00000180: 4b02 2abe ba5a a33e 83b6 02be 6ae3 3ebe
00000190: 1ce8 70bb 3be8 42be 0598 a8bc 8934 01be
000001a0: fd3b 1ebe 6873 9dbe c4e0 273e 581d b2bd
000001b0: c247 41bc 44e3 183d 2eb5 48be 2bce a73c
000001c0: 0a77 893e bdde 5a3e 6afc a1be 629b 883d
000001d0: 9a2a c03d da60 93bd c621 223d ce4d 11be
000001e0: 21dd 2dbe 1acf de3d e4b0 a03e 5a76 56bd
000001f0: 4995 d0bd dfa8 f2bc 938d 393d 8a38 24be
0.16231088 -0.23421071 -0.008215888 -0.043922346 0.12260893 -0.24631964 -0.0783247 -0.1476974
0.126724 -0.033136904 0.26423138 0.24990849 0.016779715 0.20667607 0.11477327 -0.018742386
-0.32375678 -0.28503162 0.06122589 -0.2598786 -0.279464 0.06800308 0.044807803 -0.21530657
-0.012238099 -0.09315971 0.20083293 -0.22805445 -0.07695248 -0.14676431 0.16700359 -0.24094506
-0.13551052 -0.25326207 -0.19490615 -0.12677152 0.07995834 0.1328864 0.15497868 0.109336145
-0.024788648 -0.3159666 0.048073698 0.1630881 0.14148417 0.12822597 -0.24697202 0.045679342
0.2680907 0.1885957 -0.2846284 0.091010876 0.13233165 -0.10146083 -0.00014101167 -0.09337595
-0.048041373 0.11011309 -0.12529689 0.04101833 -0.21728227 -0.2275532 -0.18830085 0.04964157
0.2428721 -0.14693734 -0.10862949 0.044471283 -0.019931398 0.17651986 0.05640924 0.20772824
-0.23934007 0.060574032 0.08138432 -0.08456545 -0.1011473 0.1397996 -0.20465414 0.20141529
0.33358273 -0.31385985 -0.12860112 -0.21669759 0.03934021 -0.063192315 -0.029500084 -0.25952968
0.013960936 0.2778309 -0.052424315 -0.024823144 -0.12107085 -0.2642333 0.15698104 0.029550089
-0.16602437 0.31905156 -0.12764935 -0.18641439 -0.0036759442 -0.19033901 -0.020580301 -0.12617697
-0.15452571 -0.3075211 0.16394335 -0.08697003 -0.011796894 0.037326112 -0.19600365 0.02048405
0.26848632 0.2137403 -0.3163789 0.06670262 0.093831256 -0.07196207 0.03958299 -0.14189836
-0.16978885 0.10879345 0.31384957 -0.052358963 -0.10184724 -0.02962154 0.04530103 -0.16037193

waveform_attention.attention.2.weight f4 [15, 128]
00000000: 32c5 88bd b1df 6f3d 0f3a bebc 023b 7c3d
00000010: 35c2 bdbc 24a1 86bc 2fab 1d3d de80 e0bd
00000020: 1e95 6cbb 5153 93bd 5f74 c8bc e2c5 c3bc
00000030: b726 37bd 44d0 023d a003 073d ccf4 97bc
00000040: e050 3dbb d395 693d 4cc8 91bc 7e3a 25bd
00000050: 6d76 983d 1ced c4bd 72f7 46be d704 123d
00000060: 3829 33be aa28 cebd 32ed a7bd f14c b33d
00000070: 1434 00bd 99e4 2fbd 9b39 c7bd 0f27 713d
00000080: 82e5 e03d a93f 8a3d 71f5 f43d d521 05bd
00000090: ab89 8dbd 40e9 fd3c f884 87bd 8587 5bbd
000000a0: 230c 9d3c 33ef 32bd d62c 703d 9185 18be
000000b0: c46e efbd 8979 523d d902 8e3d e810 e0bd
000000c0: dc0a 10be 2f87 c53d ac66 67bd ec84 3f3d
000000d0: 2aec 0ebe 17a9 3c3c e614 cf3d 1cdb 5bbd
000000e0: 9abd fe3a 64cd 383c e910 b2bc c9b8 afbb
000000f0: d61c efbd 562a 76bd c3fb 50bd ef16 a0bd
00000100: e7a2 5f3c a214 26be 7f2b 163b bce2 8dbd
00000110: e5f0 783e 451d 8bbd 914f 7abd 306f 31bd
00000120: 0e3a 8b3d 365c a7bd a49a f2bc 5ebe 843d
00000130: 30e3 02be 452b 86bd 9d21 90bc ef27 b7bd
00000140: b9ae 9c3c 99fd 69bd e8c4 19be f2b4 373c
00000150: 3f90 e7bd 7a36 94ba 72c6 82bd 8363 b2bd
00000160: d638 8fbd 1c07 88bd 931b 673c 7a5a d43c
00000170: 38b4 8dbd 4d91 e63c 5910 ed3c 7ed5 b43d
00000180: 98f7 e0bd be15 c8bd 5647 3bbd 48ff a4bd
00000190: 2cd0 f2bc 9b9e 973c b3aa 20be 1447 e83d
000001a0: b29c 62bd b93e cdbd d032 cbbd da50 a53c
000001b0: 5522 bc3b 5770 3ebd 0026 783d f548 e43d
000001c0: 58e7 dcbd 4c36 06be 974c 02bd 0cbc 99bd
000001d0: b35a 37be 423f a33d 4f49 efbd d30c e9bd
000001e0: 8941 453d 14f5 a03c 10eb 403d d139 8c3b
000001f0: b6f5 bc3c 2efe a23c 476b aebd b398 27be
00000200: b31b 31bd 4de1 9ebd 1936 113d 1716 c9bd
00000210: b6bb 333d c223 40bd c991 50bc 7fae 7ebd
00000220: ac9f edbb a572 16bd e58c 1ebd 7bb8 a9bd
00000230: 7248 f6bd ad12 5e3d c7cf 12be e65f 0bbd
00000240: 4836 083d aad2 3e3d 5c6d 083c e3fa df3c
00000250: 9250 273a 58ef e1bd 9e3c acbd 3d24 46ba
00000260: 1a93 75bd a6b0 0fbe 584d b6bc f837 e83b
00000270: fac8 06be 2855 e33c e841 ccbd a39a 39bd
00000280: 9d1e edbc 4a80 35bd bc77 8bbb da7a 67bd
00000290: edbd 3d3d 1fc8 213d d3f1 b2bc 14cf 2c3d
000002a0: a5c4 b2bc 1f1f 2f3d 08c7 04bd 9e51 23bd
000002b0: 0de9 c0bd ba14 cabd fd7d 5dbd 7631 c0bc
000002c0: 49a9 48bd d862 07be 2d02 1bbe 725b d1bd
000002d0: d82d 1cbd e643 53be 7c39 0ebd 02dc e2bd
000002e0: 2a9b 40ba 246b a2bd f98f 633d d7bf a5bd
000002f0: 2baa be3c db4f f6bd 67e4 563d c64f 333c
00000300: 5501 28be 1d80 8ebd 6375 2ebd e13d 343d
00000310: 4131 26bd 069d c13b 8e75 c03c 63b5 7cbd
00000320: 56c8 9fbd 8342 3d3c 61d5 90bb 5d9c 34be
00000330: db7f 543c 9512 36bd c22f 21bd 41eb 14bd
00000340: 8e0b 49bd 393d 9a3b 94b7 21bd 198e dcbd
00000350: b50a febb c065 07bc 47f1 6eba 26ab 65bd
00000360: 767a dfbd 06b5 8dbc ba45 b5bd dd64 053d
00000370: 7b84 b5ba 48e6 a5bd cfac 243d 1078 a63c
00000380: 40d3 c0bd 5c75 d6bc 351a 25bd c3e4 fbbd
00000390: c578 0b3d 71c9 93bd 02a3 bf3c 107d 1bbc
000003a0: 579c 50bd 2503 6bbd baf7 053d d0bf f5bd
000003b0: b6a3 f8bc b4e1 a6bd 42c2 25bd bf75 bcbd
000003c0: dac0 38bc 8041 e3bd a50b 81bd 65a4 89bd
000003d0: 96a5 99bd 6f45 23be edd0 28bd 8a87 ab3c
000003e0: f565 8b3d d45c cdbd b8e1 7ebd fb15 d4bd
000003f0: c7c7 f5bd 1bdb 923d 516d 67bc aa87 183e
-0.06678237 0.058562938 -0.023221044 0.06157971 -0.023163894 -0.01643426 0.03849333 -0.109620795
-0.0036099623 -0.07193626 -0.024469553 -0.023898069 -0.044714656 0.0319369 0.03296244 -0.018549345
-0.0028887317 0.05702765 -0.017795704 -0.040338986 0.07444463 -0.096155375 -0.1943033 0.035649147
-0.17496192 -0.1006635 -0.08199538 0.0875491 -0.031299666 -0.042942617 -0.09727784 0.05887514
0.10981275 0.067504235 0.11960877 -0.032502968 -0.06911024 0.030995011 -0.06617159 -0.05359604
0.019170826 -0.04368515 0.05863651 -0.14894702 -0.11691049 0.051385436 0.06934137 -0.109407246
-0.14066643 0.09644925 -0.0564944 0.046757624 -0.13957277 0.011514924 0.10111408 -0.053675756
0.0019435168 0.011279438 -0.021736579 -0.0053626043 -0.11675422 -0.06009897 -0.05102135 -0.07816874
0.013649679 -0.16218808 0.002291411 -0.06928012 0.24310644 -0.06792692 -0.061111037 -0.043318927
0.067981824 -0.08171885 -0.029614754 0.06481622 -0.12781978 -0.06551222 -0.017594153 -0.089431636
0.019126283 -0.057126615 -0.1501652 0.011212574 -0.1130681 -0.0011307739 -0.06385507 -0.087103866
-0.069932625 -0.06641981 0.014105695 0.025922049 -0.069191396 0.028145457 0.02893846 0.08829783
-0.10984725 -0.09769772 -0.045722328 -0.080565035 -0.02964028 0.018508246 -0.15690117 0.11341682
-0.055325218 -0.10021729 -0.09921801 0.020180155 0.0057413974 -0.046493854 0.060583115 0.11146728
-0.10786313 -0.1310665 -0.031811323 -0.0750657 -0.17905693 0.0797105 -0.116839044 -0.11379399
0.048158202 0.019648112 0.047099173 0.004279353 0.023066383 0.019896593 -0.08516555 -0.16366844
-0.043239307 -0.077578165 0.035451982 -0.098186664 0.043880187 -0.0469091 -0.01273007 -0.06217813
-0.0072517004 -0.036730427 -0.038708586 -0.0828714 -0.120255366 0.05421703 -0.14337073 -0.034027003
0.03325489 0.046587624 0.008326855 0.027341312 0.00063825503 -0.11031979 -0.08409999 -0.00075585005
-0.05995474 -0.1403223 -0.022253677 0.00708675 -0.13162604 0.027750567 -0.09973508 -0.04531349
-0.028945262 -0.0443118 -0.004256217 -0.056513645 0.046323705 0.03949749 -0.021843826 0.042189673
-0.021822283 0.04275429 -0.032416373 -0.039872758 -0.09419451 -0.098672345 -0.05407523 -0.023461085
-0.048989568 -0.132213 -0.15137549 -0.1022252 -0.038129658 -0.2063137 -0.03472279 -0.110771194
-0.000734734 -0.07930592 0.055557225 -0.08093231 0.023274502 -0.1202695 0.052463915 0.010944312
-0.16406758 -0.069580294 -0.042592417 0.044004325 -0.040574316 0.005908611 0.023493554 -0.06169642
-0.07801883 0.011551502 -0.004419968 -0.17637773 0.012969936 -0.044451315 -0.039352186 -0.036357168
-0.049083285 0.0047070053 -0.039481714 -0.107692905 -0.007752741 -0.008264005 -0.00091149326 -0.056071423
-0.109120294 -0.017298233 -0.0885119 0.032566894 -0.0013848686 -0.08100563 0.040203866 0.020320922
-0.09415293 -0.026179008 -0.040308196 -0.12299492 0.03405072 -0.07216156 0.023393158 -0.009490266
-0.050930347 -0.057376046 0.032706954 -0.11999476 -0.030351501 -0.08148518 -0.04046846 -0.09202146
-0.011276448 -0.110964775 -0.06301049 -0.06720809 -0.07502286 -0.15944456 -0.041214872 0.020938653
0.06806556 -0.10027471 -0.06222698 -0.10355755 -0.12000995 0.07170697 -0.014125184 0.14895502

waveform_attention.attention.2.bias f4 [15]
00000000: de6f 41bd c6cc 61bd e34c 9abd 8416 d8bd
00000010: 89d7 b2bd 76b6 e2bd 4975 02bd 334d 3cbd
00000020: 31cb 20be 3e77 4fbe 61ce 11be 69bb 27be
00000030: 4aa2 4abd 823f 8bbd 94a6 bcbd
-0.047225825 -0.055126928 -0.07534196 -0.105511695 -0.08732516 -0.11069958 -0.031850133 -0.04597206
-0.15702511 -0.20260331 -0.14238884 -0.16380085 -0.049471177 -0.067992225 -0.0921146

conv1.att_src f4 [1, 4, 128]
00000000: 8642 313d 387e c93e c3ff cf3e 5388 383e
00000010: 29eb 973e b177 ea3d 21d4 8a3d a3bd 88bd
00000020: 1e34 4bbc 3838 28be f749 ba3d 4253 c63e
00000030: 54b7 a7be 3710 383e 2e43 45be dbc6 9c3e
00000040: 5366 85be 5a30 9f3d d53b 593d d610 22bd
00000050: e2e0 5abe e2e8 b0be 7271 65be 42ff 13be
00000060: ebfb 54be 15cd 6a3e 36d0 1b3e adc7 a0bc
00000070: 1b26 af3e 3c24 45be bf2e 45be ee61 393e
00000080: e9d3 0cbe ba29 9d3e d4bb 2bbe de08 c33c
00000090: 3a47 ab3d 6264 743b 073f 9e3e dbfc 62bd
000000a0: 74fe ddbb e021 64bd 051d 493e d20d c93e
000000b0: 3b40 0a3d a2ee 09be 9703 99be 14bb 383e
000000c0: b2a3 67be 3283 3abe 197c e03d 8df0 033e
000000d0: 8490 5a3e 4788 5e3c 8fdd 83be 503f 673e
000000e0: ccc5 afbd 39fa cb3d 2686 2ebc 1b11 bfbd
000000f0: cf5a 633d 6207 b3bd ce8f 143d 9384 a7bd
00000100: 4edf a3be d2fb 41be ea2f 3a3e 070a b7be
00000110: 1b78 35bd f9f9 78be d449 393e 1fde 63be
00000120: 4069 a83d 350f d6be 3cc3 f7bb 93be a3bc
00000130: 065c 7c3e 974c 6b3e 1626 723e 9a86 f3bd
00000140: 2db7 9fbc 0951 13bc d29a 8d3d 7981 a23e
00000150: 6f52 d7bc 594a 3ebe ba8b ad3d b363 7a3b
00000160: 8aad bdbd 285c 483e 61eb 9bbe 9207 abbd
00000170: 0ba6 82bc cafc b4bb 7d39 563e 418a c43e
00000180: 93f3 903d 7af6 a93e 07e7 36be 2774 ca3d
00000190: 014f c9bd c170 103f 5482 e0bd 623d cabe
000001a0: b5c3 61be 42d4 063e a796 4b3d 66da a83e
000001b0: f609 41be ee40 683e 2d2d 553e 1d93 1cbe
000001c0: 0a1a cebe d48b 743d bf14 c63d e0a2 77bd
000001d0: 9cae 34be 6b89 0dbb 4829 43bd e50f 473e
000001e0: 28ed 8e3d eb8e 20bd 2417 6d3d 6381 293e
000001f0: 8989 6f3e 79ad df3e af50 c2bd 0dac cf3d
00000200: d974 80be a775 1dbe 0f35 0c3e c6dc 9c3e
00000210: 4806 843e 53ad 693e ecff 1ebd cdb3 dcbd
00000220: 65f4 7bbe e40f 033e d5d1 093e f6ba 953d
00000230: b08a 3c3e 3e6c cf3d e881 bc3d e20d 4a3e
00000240: df8e 91be 021a 893e 9a78 5fbe 5080 12be
00000250: 0d54 e53d 0540 acbe 79a9 98be e650 5b3e
00000260: 7687 c7bd 578e 4d3d 9757 24be 13f0 5bbe
00000270: 84ab 3c3e 7e70 d0be 305d 4dbe a5f6 153e
00000280: 7ecf 76be 1204 cf3d 954d 26be e3f2 ed3e
00000290: a5c4 383e 6c28 1d3e bcd6 04bd ea3c 67be
000002a0: 7f30 96be 378c 293d 95a7 413e 293e 04be
000002b0: cb0d 113d 3a42 9bbe 0eca 81be 6ff4 0fbe
000002c0: bcc6 103e 2658 5bbd 1460 7b3e 148f b73e
000002d0: 3213 983d 6d32 05bc 9f9e abbe cf95 b9bd
000002e0: 72dd 313e ebcf 32be 6359 a2be 5141 c0be
000002f0: 0cf6 0bbe 4244 96be c28c d1be 747f 59be
00000300: 41b8 373d 5543 91bd 2780 a63e a54b fabb
00000310: 34c5 d3be 3abc 07be 8d3a 45be fbf7 0cbe
00000320: 06ba e1be e68a 9c3e 0448 983e 98ec 52be
00000330: 30e9 ae3e 8787 793e b558 25be fc14 09bc
00000340: 9eef c4be 5e8e 9b3e 66ac b4be 26a2 70bd
00000350: 3627 7bbe e393 a7bd d7c5 9cbd 34fd 46be
00000360: 66b5 00be 595f 9e3e 7021 2dbe eccc e63d
00000370: f473 8c3e 3d95 253e d3b9 79be d3f5 d03d
00000380: 1f2a e13d 1c4f 963d 39b0 693e cbf1 dcbe
00000390: a966 523e 8340 aabd 1625 1ebe a3a0 6bbe
000003a0: c6cd 1dbb 53e1 713d a854 b5be f190 833e
000003b0: 40af 06bf 7625 833e f22c 91bd 8e7a 13be
000003c0: 6b21 66be c106 9f3e 6966 123d 768a 58be
000003d0: ae59 863e fb43 e43c 7461 dc3d c860 a93d
000003e0: e2a1 303e 3d01 cabe 2ecd b6be 9ae1 e73d
000003f0: 438d 6dbd 7c2a d7bd cc9b 9cbd 6f5a c03d
0.043276332 0.3935411 0.40624818 0.18020754 0.296716 0.114486106 0.06778742 -0.06676795
-0.012402562 -0.16427696 0.09096139 0.38735396 -0.32757056 0.17974935 -0.19263908 0.30620465
-0.2605463 0.07772894 0.053035576 -0.039566837 -0.21374848 -0.34552675 -0.22406557 -0.14452842
-0.20799224 0.22929795 0.15216145 -0.019626463 0.3420876 -0.19252104 -0.19256113 0.18103763
-0.13752712 0.30695897 -0.1677087 0.02380794 0.08363195 0.0037291278 0.3090746 -0.055416923
-0.006774718 -0.05569637 0.19639976 0.39268357 0.03375266 -0.13469937 -0.2988555 0.18040115
-0.22621039 -0.1821411 0.1096117 0.12884732 0.21344191 0.013582296 -0.25754973 0.22582746
-0.08582649 0.099598356 -0.010652101 -0.093294345 0.055506524 -0.087416425 0.036269955 -0.081795834
-0.32006305 -0.18943718 0.1818234 -0.35749838 -0.044303995 -0.24314107 0.1809457 -0.22252701
0.082232 -0.41808477 -0.0075611155 -0.019988334 0.24644479 0.22978435 0.23647341 -0.118909076
-0.019496525 -0.008991488 0.06914295 0.31739405 -0.026284425 -0.18583049 0.08473916 0.0038206398
-0.092616156 0.19566405 -0.30453017 -0.08351053 -0.015948316 -0.005523299 0.20920368 0.3838673
0.07077708 0.3319586 -0.17861567 0.098854356 -0.09829522 0.5642205 -0.10962358 -0.39499956
-0.22047313 0.13166907 0.04970422 0.32979125 -0.18851456 0.22681019 0.20818014 -0.15290494
-0.4025424 0.059703663 0.09671926 -0.060458064 -0.17644733 -0.00215968 -0.04764679 0.19439657
0.06978828 -0.039198797 0.057883397 0.16553263 0.23392309 0.43687037 -0.094880454 0.10140238
-0.25089148 -0.15376912 0.13692115 0.30637187 0.25786042 0.22820024 -0.038818285 -0.10776482
-0.24604948 0.1279903 0.13458951 0.073110506 0.1841228 0.101280674 0.09204465 0.19731858
-0.28429314 0.26777655 -0.2182335 -0.1430676 0.11197672 -0.33642593 -0.29816797 0.21417579
-0.09742634 0.050184574 -0.16049038 -0.214783 0.18424803 -0.40710825 -0.2005508 0.14644869
-0.2410259 0.10108198 -0.16240533 0.4647437 0.18043764 0.15347451 -0.03243135 -0.2258183
-0.29333875 0.041393485 0.18911584 -0.12914337 0.035413545 -0.30323964 -0.25349468 -0.14058088
0.14138311 -0.05355086 0.2454837 0.35851347 0.07425536 -0.008129698 -0.33519456 -0.09061777
0.17369631 -0.17462127 -0.31708822 -0.37549832 -0.13668078 -0.29348952 -0.40927702 -0.21240026
0.044853453 -0.07092921 0.32519647 -0.007638412 -0.41361392 -0.13255396 -0.19260617 -0.13766472
-0.44087237 0.3057472 0.29742444 -0.20598066 0.34162283 0.24368106 -0.1614712 -0.0083668195
-0.38464063 0.30382055 -0.3528778 -0.058748387 -0.24526677 -0.08182504 -0.076549225 -0.19432527
-0.12569198 0.3093212 -0.16907287 0.112695545 0.27432215 0.16170211 -0.24387293 0.10203137
0.10994362 0.07339308 0.2282113 -0.43153223 0.20546974 -0.08313086 -0.15443835 -0.23010497
-0.002407895 0.059052777 -0.3541615 0.2569652 -0.5261116 0.25614518 -0.07088651 -0.1440222
-0.22473685 0.3105984 0.035742197 -0.21146569 0.26240295 0.027864447 0.10760775 0.08270413
0.17249253 -0.3945407 -0.35703415 0.11322327 -0.057996046 -0.1050615 -0.076469034 0.09392249

conv1.att_dst f4 [1, 4, 128]
00000000: 9b39 963e c3ce 953d 257e eb3d 27c1 26bd
00000010: 8164 2cbe 93e3 c23c bb49 5e3e 31ab 143e
00000020: 2cb8 84bd f1e4 123d 5f7a efbc 9604 e2ba
00000030: 8942 873c 45ff 133e b06c 96be 76d4 543e
00000040: dc94 f93c 7e67 2e3d f9bf 7dbd 785b cc3d
00000050: 4391 763e 853f 4abe eb2b 99bd bb5b 01bc
00000060: e2f2 6e3e 881d 1bbd 8b50 b23d b34b 413c
00000070: 8d84 1b3e b2ce 6cbb 37dc 1cbe a860 6c3c
00000080: c4df 0b3d 9157 21be 36dd ac3d e83a 58be
00000090: 6c0b 843c 2008 94be fb8c 2abe c67a 2ebe
000000a0: df50 68be 3ce1 79bd 8535 2c3b 7b1e bb3d
000000b0: 1951 643e ff60 adbd 1424 82be 4875 b1bd
000000c0: 8d24 2b3d 5de5 92bd ebd0 7ebd 107c 1ebe
000000d0: 9a1b 82bc 3e7c 6dbe 1b98 c73b f7aa 44be
000000e0: 5123 29bd 9d6b b23d 6812 0e3e 93ee fcbd
000000f0: cbf5 be3d bc0f 11ba 8004 f23d f8f0 2b3d
00000100: ef6f 153e 961d b0bd 8bbf 8e3b bdff 493e
00000110: 6b43 96bd fb06 0dbd 6d19 5cbd e7b0 9c3d
00000120: 27b4 733e 02e9 61bb 290a 91bd cfc4 3ebe
00000130: 2e26 2fbe 8f4a d23d 716c 383e 4419 01be
00000140: 8b75 093e c5a8 4a3d f085 173e 7ef2 5f3e
00000150: 769c 4c3e dfc9 14be 3bd6 3cbd 6be9 2cbd
00000160: 5ecf 5fbe f37e bf3c 4e5b 423c 94b2 2dbe
00000170: 60a1 9ebd ca97 c9bd 16e5 803d c55a d3bc
00000180: 7bf6 a2bc d709 55bd 8a9d 45bd c5fb 973e
00000190: f21d 473e d27c 5cbb 8470 58bb bdfd db3d
000001a0: a00d 71bd fcb1 153d dc28 0ebe 1587 fa3d
000001b0: bbaa bf3d 0685 91be 5b00 45be 30d1 a03d
000001c0: 3f63 55be b975 5cbe f70d 8abd 63cb 423d
000001d0: b1ad 3bbe 1ad3 c53d b248 893d aa59 f6bd
000001e0: 32fa 41be 45ce b53e 3496 613e 83e0 e2bc
000001f0: ba06 25bc 3764 4b3e 234f 93be 734e 903d
00000200: 3d22 c2bc 0a0f 17be e8d0 16be 49a5 2bbe
00000210: be3d c83d a379 61be d9c6 c03d 0c96 9b3e
00000220: eb46 f8bb a31a a7be 926a 983d 283d c1bd
00000230: 5716 94bc 91d3 d6bd 1c92 9a3c 4652 4dbe
00000240: 5d16 a33d 7059 c23d 974e 2dbd 0981 3dbe
00000250: 063c b8bd d161 873d 1278 693e 32b3 99bc
00000260: 90c0 a6bd 41ce bb3d 479b bf3c 9128 933d
00000270: e400 533e f282 df3b e177 e6bd 45d6 10be
00000280: 3891 0dbe 1fa7 10bc d367 863d aa08 8cbc
00000290: d33c bb3d 3bf7 40bd 244a 46be 53ab 94be
000002a0: 9302 8abe c417 a0bd b22e 0bbe b4d8 9c3e
000002b0: 900e 04be 3667 543b bf5e 2e3e a45e 23be
000002c0: c6b5 91be e8e5 61be 9619 62be d109 583e
000002d0: 757d 503e 8fb9 213e 8b7d 54be e014 8dbe
000002e0: cadb 71bd d0d3 133e d049 88bd 6c2c 363e
000002f0: 9746 febc 9118 6e3d d458 aa3e 2889 713e
00000300: b5d5 353e 6d3c 4abe a2ea 80bd 5bd3 2c3d
00000310: 1cf4 c93d d566 30bd 257c ffbd eaa1 0d3e
00000320: c2a1 8ebb 2a5c 1a3e 406e 09bd 0038 b73d
00000330: 58cc d1bd 2de4 dabd 63f5 07be 5555 4dbe
00000340: 97aa 91bd eac5 023e b634 eebc dff3 333e
00000350: b632 ba3d ba55 a9bc bb9e 0bbe 636d 483c
00000360: 4a01 3dbe 164a c43e d70d a1be 2f45 5d3e
00000370: a098 7f3e a3fb 823e d062 da3d 79c9 44be
00000380: 23ab dfbd 359e b9be eb1e 073e 1aa7 913b
00000390: 9ac8 2b3e c912 3f3e 221a 9fbe 5f62 bcbe
000003a0: 58ea 0c3e 7ba4 403e 8fc2 2cbe baf7 9b3d
000003b0: 1318 a93d a0ab 01be 4e36 1d3e fcf0 9cbd
000003c0: 9cd3 213c e7de 433e 6b61 bfbd 89d8 6d3d
000003d0: 3e91 dd3c b6bf 34be d464 073e 6786 80bd
000003e0: bdc0 4a3d 05af e63d 487d e4bc 9c49 c43d
000003f0: f4b4 e3bd 4073 64bd 2a2b 87be 6ff0 5e3e
0.29340824 0.07314827 0.114986695 -0.04071155 -0.16835214 0.023790156 0.21707813 0.1451843
-0.064804405 0.035862867 -0.029233156 -0.0017243798 0.016511219 0.14452846 -0.29379797 0.20784172
0.03046649 0.042579167 -0.061950658 0.09978384 0.2407885 -0.19750793 -0.0747908 -0.007895405
0.2333484 -0.03786996 0.087067686 0.011797833 0.15187283 -0.0036133942 -0.1531838 0.0144273415
0.034148946 -0.1575606 0.0844063 -0.21116221 0.016118728 -0.2891245 -0.16655342 -0.17039022
-0.226871 -0.061005816 0.0026277017 0.09136673 0.22296561 -0.08465766 -0.2541815 -0.08664948
0.041782904 -0.07172654 -0.06221096 -0.15477014 -0.015882302 -0.23191926 0.0060911304 -0.19205843
-0.041293446 0.08711932 0.13874209 -0.12350192 0.09324225 -0.00055336556 0.118172646 0.041977853
0.1459348 -0.08599393 0.00435633 0.19726463 -0.07337078 -0.034430485 -0.053735185 0.07650929
0.23799191 -0.003447116 -0.07082016 -0.18629764 -0.17104408 0.10268127 0.18010117 -0.12607294
0.13423745 0.049477357 0.14797187 0.21869847 0.1998156 -0.14530133 -0.046102744 -0.042214792
-0.21856448 0.023375964 0.011862589 -0.16962653 -0.077456236 -0.098434046 0.06293695 -0.025800118
-0.019892922 -0.052011337 -0.048245944 0.29684272 0.19445017 -0.0033643735 -0.003302605 0.10741756
-0.058850884 0.036546692 -0.13882774 0.12232796 0.09358736 -0.284218 -0.19238417 0.07852399
-0.2083864 -0.21529283 -0.06740945 0.047557246 -0.18327977 0.09659405 0.06703319 -0.12028821
-0.18943098 0.35508934 0.22029954 -0.027694946 -0.0100724045 0.19862448 -0.28771314 0.07046213
-0.023697967 -0.1475183 -0.14728129 -0.1676227 0.097774014 -0.22019057 0.09412927 0.30387914
-0.0075768135 -0.3263751 0.07442202 -0.09435493 -0.018077059 -0.10489572 0.018868499 -0.20050916
0.0796325 0.09489715 -0.042311277 -0.18506254 -0.089958236 0.06610454 0.2279971 -0.018762205
-0.08142197 0.09170199 0.023389472 0.07185472 0.20605808 0.00682103 -0.11253334 -0.14144237
-0.13824928 -0.008828907 0.06562772 -0.017093975 0.09142461 -0.047110777 -0.1936422 -0.2903696
-0.2695509 -0.07817033 -0.13592032 0.3063408 -0.1289618 0.0032410151 0.1702833 -0.15954071
-0.28458995 -0.22060359 -0.22080073 0.21097495 0.20360358 0.15793441 -0.20751016 -0.2755499
-0.059047498 0.14436269 -0.066547036 0.17790383 -0.03103952 0.058128897 0.33270895 0.23587477
0.17757304 -0.19749613 -0.06294753 0.04219375 0.09861013 -0.04306682 -0.124748506 0.13831297
-0.004352779 0.1507422 -0.03355241 0.08946228 -0.102440536 -0.10688052 -0.13277201 -0.20052083
-0.071126156 0.1277081 -0.029077869 0.17573498 0.090917036 -0.02067076 -0.1363477 0.012233111
-0.18457523 0.38337773 -0.3145587 0.21608423 0.24960566 0.2558261 0.10663378 -0.1921748
-0.109213136 -0.36253515 0.13195388 0.004444969 0.16775742 0.1865951 -0.31074625 -0.367938
0.1376127 0.18812744 -0.16871093 0.076156095 0.08256545 -0.12663126 0.15352747 -0.076631516
0.009877112 0.19127999 -0.09344753 0.058067832 0.027046796 -0.17651257 0.13222057 -0.06275635
0.049500216 0.11263851 -0.02789177 0.095843524 -0.111184984 -0.055773973 -0.2640012 0.21771406

conv1.bias f4 [128]
00000000: a54c d93a 63a7 553d b5d5 7fbb 93a4 d8bb
00000010: f363 4bbd 497e 603d 84f9 fcbc d947 753c
00000020: 2056 10ba dfce edbc 5097 f53c 0c84 95bc
00000030: fbd6 30bd c2fb 673d 9898 293d b440 a43c
00000040: 321c aabc 2b54 4abd 9f2f 4e3d 7caa 43bc
00000050: 85be 4fbd 22ab 643c 57cc 47bd e041 173d
00000060: 4bc0 ad3c 0b82 423d 4e4b 6cbd 9a12 53bd
00000070: d337 203d 2ce4 b53c 7537 55bd 2b09 b1bc
00000080: fea9 f23a 622a 843c 9695 99b8 b09d c935
00000090: ecbd 8f3d 82b2 46bc 13ea 2ebd 0d27 373c
000000a0: 2704 49bd af83 083d 8cf7 6c3d c41d 953d
000000b0: d031 02bd e243 2bbd eda0 d83d 16e6 24bd
000000c0: 313e ffbc 6b48 a3bb a418 6bb9 4661 79bb
000000d0: a579 5c3d d0d0 4fbd 92b4 2e3c e167 b4bc
000000e0: a260 f13c f256 48bd 2636 4ebc d076 e6bc
000000f0: 6c6b 42bb b50e 97bc 25d7 5ebc 8279 75bd
00000100: 355e 313d 236b 0bbc 6fe3 c83c 5898 01bd
00000110: 7528 0a3d f5ea acbd a217 1abd 6151 8eba
00000120: 24eb 6abc 4fbf 5fbc 7026 d7bc bc60 3bbb
00000130: ffd8 38bc 16d4 56bd c1c1 f6bc 4cb6 d0bd
00000140: 184b 1ebd 9193 e1bc 118b 6d3c 9b71 c2bc
00000150: 004e bdbd 9f46 03bd 4835 dc3b be15 84bd
00000160: bb13 0fbe 27e7 a7bc 63bc da3b 9d51 c1bd
00000170: 905b 90bc cfdd 703d 863b 38bd d50a 71bd
00000180: 2a33 aabc b458 03bd 644f 67ba d634 863c
00000190: 928f c83b fa23 1ebc b7b1 f3bc 9798 f1bc
000001a0: 16d4 553d 5416 1cbd 8ab5 42bd abc4 85bd
000001b0: 30c0 b0bc ae42 bcbd e171 39bd e6cc 4d3d
000001c0: 1623 f13b 0689 133d 87e3 15bd e6e9 c9bc
000001d0: 7fc1 283c 9909 fb3c 96aa ed3c f970 6a3c
000001e0: d552 4a3c 4379 b5bc d1bf 8cbd 037d 053b
000001f0: 7093 203d 9b62 183d b75b 89bb 4604 ca3b
0.0016578628 0.052161586 -0.0039037291 -0.0066114157 -0.049655866 0.054807935 -0.030880697 0.014970743
-0.00055059977 -0.029029308 0.029979378 -0.018251441 -0.04317377 0.05663658 0.04140529 0.020050384
-0.020765398 -0.049396675 0.050338384 -0.011942502 -0.050718803 0.013956817 -0.048778858 0.036928058
0.021209856 0.0474873 -0.057689004 -0.05153141 0.039115738 0.022203527 -0.05205484 -0.021610817
0.0018513796 0.016133491 -7.323471e-05 1.502156e-06 0.070186466 -0.0121275205 -0.0427037 0.011178744
-0.049076226 0.03332871 0.057853267 0.07281068 -0.031785786 -0.041812785 0.10577569 -0.04025849
-0.031157585 -0.004982998 -0.00022420526 -0.0038052364 0.053826947 -0.05073625 0.0106631685 -0.02202219
0.029465023 -0.048911043 -0.012586152 -0.028132826 -0.002966608 -0.01843963 -0.013601099 -0.059930332
0.043302733 -0.00850943 0.024522511 -0.031639427 0.03372999 -0.08443252 -0.037620194 -0.0010857993
-0.014338288 -0.013656451 -0.026263446 -0.0028591594 -0.011282205 -0.052448355 -0.030121686 -0.1019102
-0.038645834 -0.027536185 0.014498488 -0.023735812 -0.09243393 -0.03204977 0.006720219 -0.064494595
-0.1397237 -0.020495964 0.0066752895 -0.094393946 -0.017621785 0.058805283 -0.04497864 -0.05884822
-0.02077635 -0.032067016 -0.0008823781 0.016382616 0.0061206305 -0.009652132 -0.029747827 -0.029491706
0.052204214 -0.03810723 -0.04753641 -0.06531652 -0.021576017 -0.09192406 -0.04527462 0.050244235
0.007358919 0.036019348 -0.03659394 -0.024647664 0.010300039 0.030644225 0.029012006 0.014309161
0.01234885 -0.022152549 -0.068725236 0.0020368702 0.039203107 0.037203413 -0.0041918415 0.00616506

conv1.lin.weight f4 [512, 19]
00000000: 4b77 ce3c e227 0abd d93b d13b 367e d03d
00000010: 8364 193e 9782 e23d 75f7 a83c f2e8 f83d
00000020: 99a0 d0bb f7d5 54bd 73bf f23c 0151 563d
00000030: e99b 01be 8a94 a6bd 5314 85bd aa89 c8bc
00000040: 1de7 003e fc4a e53d 591b e73c 8a38 833d
00000050: 2efc 8fbd bbc8 a9bc 48a8 443d 9aec c23a
00000060: 9256 793c 4d9a 3ebd d211 c9bd 932c 7bbc
00000070: af08 38bd f850 b83d 2546 f03b e4c4 9f3d
00000080: 203c ac3d 7630 f1bd 8be2 5dbd 013b 8dbd
00000090: ce03 983b aeea 5b3d f08b 863d ca00 e03b
000000a0: 8d54 d93d 8d06 c63d bdbf 913d f0c6 163e
000000b0: 68dd 9a3d 0746 5a3b f7a0 9c3d e6c9 ad3d
000000c0: 1088 873b 05b5 073e 4c97 a83d 55c6 083e
000000d0: 403f cc3d 5622 82bd 8c49 5dbe 293a aa3d
000000e0: 4a4e 87bc 5387 623d dd99 e13d 5356 853d
000000f0: 07fc 15bc 7a50 91bd 4f76 1cbd 778b 233d
00000100: 2f99 a7bd dd94 8bbd 335d 033e cabc bb3d
00000110: 9f75 ee3d b21f 3cbd d1f1 e43d 64d7 123e
00000120: d93a 7ebc d4c0 77be 3b8f debc 026c cabd
00000130: b6c0 89bd 1ef4 b83d a7ef 963d 1339 a83d
00000140: 399d 17bd 67a2 5f3d 421c 10be 77c7 8b3d
00000150: 5c1a 113e f4dd eb3a 3ccd ae3d 12ec 243c
00000160: c88a 01bc 8045 b4bd e65f e2bc ca50 e73c
00000170: b37f 18be 6a3a 863e 2483 093d cb0a cfbc
00000180: e2fe 12be 58c0 e1bc 7e62 bb3d 9d08 353c
00000190: abdf 63bd 487a bd3d 14d0 3bbd 060f 583c
000001a0: d4db 7a3d bc87 d83d 0ec6 21ba 2f50 c4ba
000001b0: 7d26 083d be4d 523d 2c16 f6bc 281e a33d
000001c0: 4da9 303e 311f 8b3d 46e9 4dbd 5c44 27be
000001d0: 297f 6fbd ae99 b7bc d582 243d 481c 9abd
000001e0: e920 053e aa84 88bd 518a ae3d 415e bbbc
000001f0: b7f4 1bbd 41c3 c03d f3ac eb3b c545 0fbe
00000200: c76b 90bc 7e61 393d a26c ba3a 0d77 35bc
00000210: 2899 b43c 009f fe3c 5e90 03be 8c4a 323c
00000220: 2df8 97bc 47cc cdba 5f0f 0abe c155 4bbd
00000230: be04 043d c9f1 e7bc 126f 92ba 3661 13bc
00000240: f72c 63bd 5d24 cb3d d22c 6a3d 1c11 b0bd
00000250: 8db0 c33c 4770 333d 001b 5bbd 5923 36bd
00000260: dbff ed3d ec60 75bd 2e1b ea3d c2f1 debc
00000270: d465 6ebd b053 a23d 0a57 d03c d137 e83c
00000280: 726a 1ebd 8411 aa3b 4e8b 9f3d 65fb 87bd
00000290: f8e3 fe3d d96d 31bd c1ec 1f3e 8e1c 5cbd
000002a0: f50a 0abc 02c9 8abe c2fe 43bd bf11 95bd
000002b0: 7e1b 8ebd 6f5c abbd 7e92 a4bc 0e6a a43b
000002c0: c6b1 debc 7cb8 33be cb29 143c 86af b1bd
000002d0: 9931 243c aac8 f9bc 7097 66bd 40e6 bebd
000002e0: 7829 c7bd 9759 c3bd f157 cdbd 7512 df3b
000002f0: 0b2b cf3d 24a2 973c 5efe 9f3a 12a9 aebd
00000300: e263 08bc f9ef 98bd 1931 693b b74b c73c
00000310: 8a88 ab3d 87d1 333c 6ce9 663d 803b 62bd
00000320: 2887 fb3b 647e 45bd f210 36bd 8a81 edbd
00000330: 4332 0dbe cf91 99bc e58f 27bc 4c2d 263e
00000340: dedf b1bd 1006 42bd 5c11 b73d 6ac4 633d
00000350: b028 aa3d bb0e 0dbd 5707 4c3d ec2d babd
00000360: 882e 993d e0af 353d 2538 bc3c 4f16 8a3d
00000370: 367a 29bd 985a d63d 561a 80bc 4e09 883d
00000380: 412a 22bd a09d 88be d048 063e 9c56 6bbd
00000390: df63 b23d e6f0 bbbb 4787 103d 70cc 3dbd
000003a0: 77fe c33d 0c4c a33d 0e57 073d c21a 843d
000003b0: 2bc3 abbd 95ad 5c3d ccf6 693c 716b 45bc
000003c0: ecfc ecbd 919f 3c3c de32 533d b48d 94bd
000003d0: 3a12 293c a47a 4ebe f623 e7bd cf4c b03d
000003e0: 52a5 d9ba 9377 0f3d a36c 20bb d3da 83bc
000003f0: 861f edbc 000c 8dbd 1cef 2f3d e53b 3c3d
0.025203368 -0.03372944 0.006385308 0.10180323 0.14979748 0.11060064 0.02062581 0.12153806
-0.006366801 -0.051961865 0.029632306 0.052323345 -0.12657131 -0.081338 -0.06498017 -0.024479706
0.12588163 0.11195943 0.028211283 0.06407268 -0.07030521 -0.020725599 0.048012048 0.0014871538
0.015218394 -0.04653387 -0.09817852 -0.015330452 -0.044930156 0.089998186 0.0073325806 0.07801226
0.084099054 -0.11776821 -0.054171126 -0.0689602 0.0046391254 0.053690605 0.0656966 0.0068360316
0.1061183 0.09669218 0.07116649 0.14724326 0.07561761 0.00333059 0.07647889 0.08485775
0.004136093 0.13252647 0.082319826 0.13356908 0.099730015 -0.06354205 -0.21610087 0.083118744
-0.016516823 0.055304836 0.11015675 0.06510606 -0.009154326 -0.07095428 -0.038198765 0.039927926
-0.08183514 -0.06815503 0.12828521 0.09166868 0.11643528 -0.045928665 0.11178935 0.14339978
-0.01551696 -0.24194652 -0.027167907 -0.09883882 -0.0672621 0.09030937 0.07369929 0.08214011
-0.037015174 0.05459824 -0.1407328 0.06825154 0.14170212 0.0017995224 0.08535239 0.010066049
-0.007906623 -0.088023186 -0.027633619 0.028236765 -0.14892463 0.2621644 0.03357233 -0.025273701
-0.14355043 -0.027557537 0.09149645 0.011049417 -0.05563323 0.09251839 -0.045852736 0.013187176
0.0612448 0.10572764 -0.0006171175 -0.001497751 0.03323983 0.051343672 -0.03003987 0.07964736
0.17252083 0.06793059 -0.050271295 -0.16334671 -0.05847088 -0.022412147 0.040163834 -0.075249255
0.13000835 -0.06665929 0.085224755 -0.022872092 -0.038075175 0.09412242 0.007192248 -0.13991459
-0.017629517 0.04525899 0.0014223049 -0.011075747 0.022045687 0.031081676 -0.1284804 0.010882031
-0.018550957 -0.0015701138 -0.13482426 -0.04964233 0.032231085 -0.028313534 -0.0011172018 -0.008995345
-0.055462804 0.09919045 0.05717165 -0.08597013 0.023887897 0.043808248 -0.053492546 -0.044467304
0.11621066 -0.059906885 0.11430965 -0.027214888 -0.05820258 0.079261184 0.025432128 0.028346928
-0.038675733 0.0051900763 0.07790242 -0.066397466 0.12445825 -0.04331765 0.15617658 -0.05373817
-0.008425464 -0.27106482 -0.047850378 -0.072787754 -0.069388375 -0.0836724 -0.020089384 0.0050175255
-0.027184378 -0.17550844 0.009043167 -0.086760566 0.010021591 -0.030491192 -0.056296766 -0.093212605
-0.097247064 -0.09538572 -0.10026539 0.00680762 0.10115632 0.018509932 0.0012206545 -0.08528341
-0.008324595 -0.07467646 0.0035582243 0.024328096 0.08375652 0.010975248 0.056374952 -0.055232525
0.007676024 -0.04821624 -0.044449754 -0.11596973 -0.13788705 -0.018746285 -0.010227178 0.16228217
-0.086852774 -0.047369063 0.08938858 0.055607237 0.08308542 -0.034437876 0.049811687 -0.0909079
0.07479578 0.04435718 0.02297599 0.06742536 -0.041376315 0.10466498 -0.015637558 0.066424
-0.039591078 -0.26682758 0.13113713 -0.057455644 0.08710455 -0.0057355044 0.03528526 -0.046337545
0.0957002 0.07973489 0.033042006 0.06450416 -0.08386835 0.05387648 0.014280032 -0.012049542
-0.115716785 0.011512653 0.051562183 -0.0725359 0.010319287 -0.20163971 -0.11286156 0.086084
-0.0016605055 0.035026144 -0.0024478815 -0.016095554 -0.028945696 -0.068870544 0.04295264 0.045955557

convs.0.att_src f4 [1, 4, 128]
00000000: d3a8 9cbd 6aea 543d f612 debc fd79 1f3e
00000010: 2c65 513e 9be0 9f3d 5924 a13d af1c c03c
00000020: b0c7 443c 9361 483e 77cf f7bc 6661 f13d
00000030: 1f66 06bd 672b e7bc 76a6 1d3e 662a a03d
00000040: 5b7d e03c d7a3 c7bd bd86 dc3d a96f 10be
00000050: b54e 28bd 0b9a f7bc ff66 bfbd 6650 c0bc
00000060: 949a 40be fab7 c5bd 353b 62bd adda 123d
00000070: f6f0 a4bc f008 f23b 3129 c63c 8aa6 043d
00000080: 5fec 153d 5972 a93d fc8e 813d 708c 8a3d
00000090: 51c0 d5bc e067 743d 602b 373b d68a b0bd
000000a0: 8567 893d e722 f6bd 32a2 a0bc d80c a3bd
000000b0: 5caa 28be 7e13 c7bd 2c6f 41be aa22 2ebe
000000c0: 2dbf d2bc 55f5 f03d d4b7 a53d 74a0 1bbc
000000d0: a710 583e 02e9 4b3e 78e0 07be 14d4 113d
000000e0: 6245 e7bd 6da7 b43c 1c20 2ebe b59f 03be
000000f0: 38ea 52be 9bf0 52bc 160d 3a3e 64f8 adbd
00000100: 0bdc 023e 3ae5 84bd c8a8 063e 4c0b b1bd
00000110: 8168 a9bc 4e90 89bd 0a75 47bd d8cc 153e
00000120: c570 d5bd 64b1 9cbd 386c 80bd 2f20 1ebe
00000130: 158b 38be 6d3c 2f3e 5ac3 c7bc c1dc e83d
00000140: c3d2 9f3b aa39 0bbd 2e14 d73d 1411 813c
00000150: 72a5 663d c46c 463e e324 e5bd b1bc eabc
00000160: 5f83 cabd 86fb 36bd b94a 863c 14c3 4dbd
00000170: a90c ad3d 86c2 c93c 01df 9cbb cdc3 0f3e
00000180: 8035 4abc 4590 9abd a724 4cbe 239e 34bc
00000190: bb34 e93d 976e 753c 6e0a 263e e6ed d0bd
000001a0: 53cc 51bd a223 1bbe ab69 41bd 7115 84bd
000001b0: 1338 be3c 6ff0 be3c 2f0b d13d 501c 2d3e
000001c0: 03bf dabc 2f97 0abc 73d1 333e aa50 583d
000001d0: 0090 973d c52f 3b3d f798 343e 0795 3fbd
000001e0: 2187 d33d 72ae 3ebe 8d8a 56bd 67b0 3c3e
000001f0: 5016 163e ec67 14be 2cef 6bbc 4db1 c83c
00000200: 102d 49be 1488 aa3d eb52 eb3d 9f52 00be
00000210: d0bc 19ba 1b5e 50be d690 cfbd e4a8 083e
00000220: 56d3 e9bc 3b77 4ebd 7695 8d3d 38f8 2e3e
00000230: ffd5 62bd 1359 e03d 7019 853d 216e e3bb
00000240: e47f 85bc 6570 4b3e 5ec6 80bd 90d1 bfbc
00000250: 54c4 90ba 57a1 e13d 30ad 1b3e 287b 253c
00000260: 342f 5ebe e500 7abd 0bf0 6c3c 8c8b a2bd
00000270: 714b 2e3e cd24 69be dbe0 ae3c 3fee d2bc
00000280: b0b6 e73d 2b2b 60be e03c a43d ae95 dc3c
00000290: 255b 61be 9b0f 453e ef12 633e 2133 16be
000002a0: 3e4f 273d 8d30 3c3e bc4e 86bd 8f16 e03d
000002b0: 9ffe 0d3e 4375 ebbb b5c2 953d 0101 febd
000002c0: abf8 c13d d3d9 8c3d 6556 203e 9a48 383e
000002d0: e778 ae3b 2932 383e 745f 1d3e 03d4 aebb
000002e0: f95a aebc 96e9 12be 0842 193d 428d dabd
000002f0: 3769 d33d 7264 33be fe4e 093e 44f3 0c3e
00000300: 2f15 dfbd bf91 25bd 8a0d 08bd 6e7c 3e3c
00000310: cfc4 8b3c a3d1 b73d cef9 13be 0e65 61be
00000320: 20e4 07be 6f4b 25be 665e a63c 8d5d bf3d
00000330: 8359 26be 12fc 283e c877 d13d 8116 bebd
00000340: b885 a1bc acec 25be 68ac b73d ac04 433e
00000350: 0785 153e 5a92 02ba a8ea 36be 21c2 ef3d
00000360: 1299 5b3e 96a3 2e3e 20cd 9b3d 04b6 aebc
00000370: 1043 98bd 25b1 18bd 81ff 88bd 75f4 bb3d
00000380: c80b 1abc 86cf dc3d 9a2a 263e 76ce 243e
00000390: c242 cb3c dc8e 003c dd26 143e 5339 d03d
000003a0: 4a6a bcbc 3c43 9bbc 37e1 373e 001a 043e
000003b0: 74d4 e03c 6228 5d3e 4c12 493d 91d6 47be
000003c0: 3e85 f5bd c04d 413e 7bf0 223e f253 073e
000003d0: 748a 06be 66e4 b439 b099 633c 305e 223e
000003e0: d4bf 93bc 1199 343e 9223 c03d c182 05be
000003f0: 3ff0 4bbe 876b f03c 77d4 b63c dd53 7a3e
-0.07649388 0.051981367 -0.02710865 0.15573879 0.2044875 0.07806512 0.07868261 0.023451177
0.0120105 0.19568472 -0.030250294 0.117861554 -0.032812234 -0.028218938 0.15395531 0.07820587
0.027403524 -0.09748047 0.10767887 -0.14105095 -0.041090686 -0.03022482 -0.09345817 -0.023475837
-0.18808967 -0.09654231 -0.055232245 0.035853077 -0.02013443 0.0073863193 0.024189563 0.032385387
0.036602374 0.08273763 0.063261 0.067650676 -0.02609268 0.059669375 0.0027949437 -0.08620231
0.06709198 -0.12018376 -0.01960859 -0.07961434 -0.16471237 -0.09720515 -0.18890065 -0.17005411
-0.025725925 0.11765543 0.08091703 -0.009498704 0.21100102 0.19913104 -0.13269222 0.035602644
-0.112925306 0.022052491 -0.17004436 -0.12853892 -0.2059716 -0.012874748 0.18169054 -0.084946424
0.12779252 -0.06489034 0.13150322 -0.08644733 -0.020679714 -0.06716977 -0.0486956 0.14628923
-0.104219 -0.07651022 -0.06270641 -0.15441965 -0.18021806 0.17112894 -0.024385143 0.113702305
0.0048774197 -0.03399054 0.10501896 0.015755214 0.056310125 0.19377428 -0.11188676 -0.028654428
-0.09888338 -0.044673465 0.016393052 -0.05023487 0.0844968 0.024628889 -0.0047873263 0.14039536
-0.012341857 -0.075470485 -0.19935857 -0.011024031 0.11387011 0.01497998 0.16214916 -0.102016255
-0.05122025 -0.15150312 -0.047219913 -0.06449402 0.023220098 0.023308007 0.10207211 0.16905332
-0.02670241 -0.008458897 0.17560367 0.052811302 0.07400513 0.045699853 0.17636476 -0.046772983
0.10328508 -0.18621233 -0.052378226 0.18426667 0.14656949 -0.14492768 -0.014400285 0.024498606
-0.19646096 0.08326736 0.11490425 -0.12531517 -0.0005864622 -0.20348398 -0.10135047 0.13345677
-0.028543156 -0.050406676 0.06913273 0.17086875 -0.055379864 0.109544896 0.064989924 -0.0069406186
-0.016296335 0.19867094 -0.062878355 -0.023415357 -0.0011044838 0.11017101 0.15202785 0.0101001635
-0.21697694 -0.06103601 0.014461528 -0.07936773 0.17020966 -0.22767945 0.021347454 -0.02574837
0.11314142 -0.21891467 0.080194235 0.026926842 -0.22007425 0.19244234 0.22175191 -0.14667942
0.040847056 0.18377896 -0.06557986 0.10941803 0.13866661 -0.0071856095 0.07312528 -0.12402535
0.09471258 0.06877484 0.15657957 0.17996445 0.0053244713 0.17987885 0.15368444 -0.0053353324
-0.021283614 -0.14346918 0.037416488 -0.10671474 0.103228025 -0.17518786 0.1340904 0.13764673
-0.10892712 -0.040422197 -0.033216037 0.011626346 0.01706162 0.08975532 -0.14450762 -0.22011206
-0.13270617 -0.16142057 0.020308685 0.09344015 -0.16245084 0.16502407 0.102279246 -0.09281636
-0.019717082 -0.16203564 0.08968431 0.19044751 0.14601527 -0.00049809145 -0.17862952 0.11706949
0.2144511 0.1705459 0.07607484 -0.021327026 -0.07434666 -0.037278313 -0.066893585 0.09177486
-0.009402223 0.107817695 0.16227189 0.16094384 0.024812106 0.00784656 0.1446795 0.10167184
-0.022999901 -0.018952958 0.17957006 0.12900543 0.027445056 0.21597436 0.049089715 -0.19515444
-0.119883046 0.18877316 0.15912049 0.13215616 -0.13138753 0.00034502445 0.013891622 0.15856242
-0.018035807 0.17636515 0.093817845 -0.1303816 -0.19915865 0.029348148 0.022318108 0.24446054
