waveform_only_model.pt (torch, 197520 bytes, 8 tensors)

model.0.weight f4 [256, 27]
00000000: 8042 61bc 797d 65be 3321 b83d 2d7d a83d
00000010: 7851 3fbe 030a 9ebd 0338 7abe bb50 723d
00000020: caaa 3bbe 6d9e 36bd f05f 23be 6762 25be
00000030: 33e3 4f3d 8f9f 1f3e e486 af3c d282 8ebd
00000040: b47c 0a3e e32f 11be 5294 1ebe cc6c 1abe
00000050: 6641 9dbd cd41 a23d 2fc5 9f3d 5c15 843d
00000060: 40d7 7e3a 37e7 07be 3f62 35be c335 b7bd
00000070: f600 01bb 7607 b2bd 0c40 1c3e 6c38 f93d
00000080: a3cb a6bc fb3a 203e 7cfa 1d3e 8d82 b03d
00000090: 6c0e 91bd b168 5dbc 81fb 193e 16a2 6e3d
000000a0: aaac 7f3c ff28 c33d 45bf 2fbe f70f 1c3e
000000b0: 1c20 dd3d 5724 f23d f3ef 00be 5287 c63d
000000c0: 6ca4 7e3e dc51 ff3d 139f f93b dafd 47be
000000d0: 4987 8fbc c91b b23d 9e51 1a3e 11ab 0ebe
000000e0: 3505 aa3d d1e2 cabd 1ee6 50bc 42e7 093d
000000f0: feb3 8abd 8c9d 4d3e b42e 343e a68d 18be
00000100: e252 b5bd 3514 a33d a6bf bd3c ccf4 3fbd
00000110: c004 0abd de84 fd3d 8109 123e 7fe4 053e
00000120: 27ab cc3d c5a3 5bbc fc41 a03c dc4b 05be
00000130: d71d a63d 66a2 833c 72a5 5fbc cf6b d23c
00000140: 09a5 41be d124 eebd 41aa 19be de57 a93d
00000150: 2e66 97bd c188 b23b 6b98 093e 85c5 163b
00000160: 18ef f03d 011f 353e 1859 083e 368f f33d
00000170: e8ce cf3d 1b90 163e 983a 28be c50c 4e3d
00000180: d609 0fbe f6f0 993d 3d4f 3ebd c9de 17be
00000190: c1c4 ccbd 740d a73d d515 533c 9656 1a3e
000001a0: 4b45 bc3d 3793 043e 3794 cb3d 58fe bebd
000001b0: b3fe 073d b656 f2bd 8061 833c 4077 73bd
000001c0: f89d 9e3b 516b 453e 39af bf3d 8c10 1a3e
000001d0: 46f9 57bd bae4 413d 31be f8bd e8f9 15be
000001e0: 47da 4b3e 1c63 2e3e 8716 8c3d ca54 aa3d
000001f0: 7028 923d b9ca 133e 361b 94bd 1aab 173e
00000200: 0bb5 ccbd 98de 23be 09e0 d33d a9f2 98bc
00000210: 9890 2a3e c11f 253e c4dd c1bd 6cbd babb
00000220: 5f03 4fbe 9cd5 5ebe f1d3 31be 51e2 edbd
00000230: a43b 593e 5f5c d4bd fb54 7d3d ba0c e03b
00000240: 1bd1 5ebe 937d 0abe ba88 51be 41e4 a1bc
00000250: 8ab4 81bd 55c3 4a3e 6bf4 bc3d 76e6 5dbe
00000260: d0ce bd3d a5fc 8e3d 7de4 b73d c7e2 24bd
00000270: 34bf 043c 52d8 8a3d 24cb 013e 5c58 4bbe
00000280: 3065 68be e15a 03bd 427d abbd 32b2 103e
00000290: cf91 973d cb4e 583e e592 1e3e 48ff 4a3e
000002a0: 985b 83bd 106b 693e 9de5 be3d dce1 d03d
000002b0: 671c 49be 9a9e 933d 185b f4bd efd2 59bd
000002c0: c011 d03d b076 753c fe00 e83a 1eb8 b63d
000002d0: 2b5b 063c 1ca2 3fbb 2c26 193e c23a 08bd
000002e0: 590c 9ebd 59bd 353e 1775 20be cbd8 eebc
000002f0: 6221 06be fd9e 253e 0e89 63be cefc e2ba
00000300: 6201 6a3e 545b 703e 422d d03d fe80 ffbd
00000310: 1385 f7bd 04dc 6a3d 497b 773b 51a0 e7bd
00000320: fa8b 88bd 5071 5cbe d9e7 363e 01e6 743d
00000330: 9338 153e 3ca5 1ebd 5c7c 4ebe 6334 cd3d
00000340: 8f3e 1abe afa2 3fbe b97d 3cbe 5c7b acbd
00000350: 8189 1ebc 3be9 853d 86f4 543b bde5 d4bc
00000360: a925 ddbd 29d0 0d3e 2496 8fbd 407d be3d
00000370: f603 a8bd 2464 86bd 61ad b43d 5991 233e
00000380: 3275 34bc 60c2 233d 83dc bcbd 62e7 febd
00000390: ab07 733d 3b25 55bb 0ffd d3bc 4b15 37be
000003a0: c5fd 9e3d 9d3b 8bbd 7a5d 0e3e 7c8a 273d
000003b0: c238 ba3d 9825 353e 1da9 6e3e a0b4 d93d
000003c0: e806 a8bd 63ae 1ebe f39d 80bd 86c6 75be
000003d0: 8103 e7bd 9c33 39be 13e6 1fbe 6e2b 563d
000003e0: 63a2 583e 90b0 24bc 0259 003e f020 81bd
000003f0: e286 8cbe ba40 81be 2248 20be 9f09 48be
-0.013748765 -0.22411145 0.08990707 0.082270004 -0.18683422 -0.07716753 -0.2443543 0.05915902
-0.1832687 -0.04458468 -0.15954566 -0.16150819 0.050753783 0.1558821 0.021426626 -0.06958546
0.13524133 -0.14178424 -0.15486267 -0.15080565 -0.076784894 0.07922707 0.07801282 0.064493865
0.0009721406 -0.13271795 -0.17713259 -0.08945801 -0.001968441 -0.08692829 0.15258807 0.12168965
-0.020360773 0.156475 0.15427583 0.086186506 -0.07082829 -0.01351373 0.15037347 0.058260046
0.015605131 0.09529304 -0.17162807 0.15240465 0.1079714 0.118233375 -0.12591533 0.09693779
0.2486741 0.12466785 0.00761784 -0.1953043 -0.017520564 0.08696706 0.15070197 -0.13932444
0.083017744 -0.09906543 -0.012750177 0.03366781 -0.06772612 0.2007963 0.17595941 -0.14897785
-0.08853699 0.079628386 0.023162674 -0.046864316 -0.033695936 0.12378858 0.14261438 0.13075446
0.09993582 -0.013405745 0.019562714 -0.1301722 0.0811116 0.016068649 -0.013650285 0.025686173
-0.18910612 -0.11628116 -0.15006353 0.082687125 -0.07392536 0.0054484312 0.13437049 0.0023005914
0.117643535 0.17687608 0.13315237 0.1189255 0.10146886 0.1470341 -0.16428602 0.050305147
-0.13968596 0.07516663 -0.046462286 -0.1483108 -0.09998465 0.08156863 0.012883623 0.15072092
0.09192904 0.12946783 0.09940379 -0.09325856 0.033201884 -0.11832945 0.016037703 -0.059439898
0.0048406087 0.19279219 0.09359593 0.15045375 -0.05272796 0.04733727 -0.12145651 -0.14646113
0.19907485 0.17029995 0.06840234 0.083169535 0.07136619 0.14432801 -0.072317526 0.14811364
-0.09995469 -0.16002882 0.10345466 -0.018670397 0.1665672 0.16125394 -0.094661266 -0.0056988504
-0.2021613 -0.21761173 -0.17366005 -0.11615432 0.21214157 -0.10369181 0.06184862 0.0068374546
-0.21759455 -0.13524465 -0.20462313 -0.01976216 -0.06333263 0.19801076 0.092263065 -0.21669945
0.09267962 0.06981782 0.089791276 -0.040255334 0.008102227 0.06779541 0.12675148 -0.19857925
-0.2269485 -0.03206909 -0.083735004 0.14130476 0.07400858 0.21123807 0.15485723 0.19823945
-0.064139545 0.22794747 0.09321139 0.10199329 -0.19639741 0.07207985 -0.11931437 -0.053179678
0.101596355 0.014981911 0.0017700491 0.08921836 0.008200447 -0.0029240912 0.14955968 -0.03325916
-0.07717199 0.17748012 -0.15669666 -0.02915611 -0.13098672 0.1617393 -0.22220251 -0.0017317773
0.2285209 0.23472339 0.10164882 -0.12475775 -0.12085929 0.05733873 0.0037762693 -0.11309875
-0.066673234 -0.215276 0.1786188 0.05978966 0.14572363 -0.0387318 -0.20164627 0.100197576
-0.15062927 -0.18714403 -0.18407334 -0.084219664 -0.009676338 0.06538626 0.003249438 -0.025988454
-0.10798199 0.13848938 -0.07011059 0.09301233 -0.082038805 -0.06562069 0.08822132 0.15973414
-0.01101427 0.039980292 -0.09221747 -0.124464765 0.059333485 -0.0032523412 -0.025877504 -0.17879216
0.077632464 -0.0679848 0.13902846 0.040903553 0.09092857 0.17690122 0.23306699 0.106301546
-0.08204442 -0.15496211 -0.062801264 -0.24001512 -0.11279965 -0.18086094 -0.1561511 0.05228751
0.21155696 -0.010051861 0.12533954 -0.063051105 -0.27446657 -0.25244695 -0.15652516 -0.1953492

model.0.bias f4 [256]
00000000: e7e6 1cbc daa7 9abd cde6 173e be1d bf3d
00000010: b21c 60bc e25d 013e 3677 2e3e 4b09 e1bd
00000020: 1acf f33d a3ae 993d 710b 073e 1a47 073e
00000030: 2e51 e7bc ce64 2ebd 015d c43d 9507 533e
00000040: c1de c1bd c7d5 013e 37bc 443e 841f 0d3e
00000050: c692 bcbd ab9c 0ebe 0140 3d3c 447b 8b3e
00000060: 53ff 23bd ffe3 0f3d db77 993c 00c8 8e3d
00000070: def3 5ebd aa9f a93d e390 e2bd 0919 e63d
00000080: e086 12be 47bd 0a3e 0be7 7a3d e554 063e
00000090: 98b6 a63e 2b27 623e 122a 1abe b805 803e
000000a0: a42a 7c3e 55d0 aa3d 07c0 ef3d cca9 b23d
000000b0: d15b 11bd 53d8 5dbd 9ce5 b13d c69f 21bd
000000c0: ce09 a2bb f1c9 cc3d 5423 01be cd41 29be
000000d0: 82c2 07be 1379 703e 191c f1bd 5cc3 eb3d
000000e0: fd46 6e3e fb72 11bd 07ca debc fbf7 f2bd
000000f0: 289b 00bd 051b 493e 79a6 353e d67c 6e3e
00000100: e92a 6c3d 50ab 203e 4d4b 4c3e 567f 8b3c
00000110: f497 1d3e 6265 29be c406 d53d cb7a 99bd
00000120: 1478 95bd 05f7 673c 0ca9 1f3e 85a6 9c3d
00000130: 5164 13bd 5619 133e 0e5b 2f3d b5fa 443e
00000140: 9df7 4d3d 5a99 01bd 524b 393e a39b 9a3d
00000150: 7e8e f3bd d0a1 6b3e a0fe 3c3e 2439 71bd
00000160: 617c 573b de88 263e a6fa 7dbd 27d1 fb3c
00000170: 660c 2cbe 39dd 983e 4f63 b23c 8f21 373e
00000180: 6ac0 c13d 18b9 8e3d be65 22bc 9f7e 703d
00000190: af47 f3bd 965a 683e 1e15 0abe 553d c83d
000001a0: 169f 393e 340a 723e 4f17 323e b9aa a33c
000001b0: fad0 adbc f8f8 fd3b 60f3 6c3d a0b6 7abd
000001c0: 0206 adbd 20a4 f5bd 4c8d cabb 88af 183e
000001d0: d842 b1bd 512f f93d 31c2 f03a 4bd2 9b3e
000001e0: 1965 b33d 269c a83c 6440 08be 5c76 243e
000001f0: 00e5 4ebc a231 a1bc 2df6 9c3e a7e7 0cbd
00000200: 2943 be3d 91a0 143d cea6 5dbd f82e 833e
00000210: 094d edbc 51f5 223e d254 913e e083 463e
00000220: a5a1 193e dd23 803d 8847 97bd cab6 74bd
00000230: 8450 6c3e 837f 203e 54ec 073d 2fda 263b
00000240: 290b f23d 5848 7c3e 52f3 203e b793 8c3c
00000250: df19 603e d5b7 4d3e 9c5d 2e3d 5fff 733e
00000260: 37c1 773d b62c 473c ee76 303d 72ad 423e
00000270: 4d78 153e cfe3 17bd 99d8 e2bc 0a57 753e
00000280: c09d 7c3e 6e78 d6ba 1af9 c73d ecd9 3b3e
00000290: 9205 623b 5fb8 4d3e f886 4ebd 8a28 1fbd
000002a0: 285a 073e 598d c73c 58cc 9abc 4bcb 93bd
000002b0: 1801 593e 53f5 65bd 4367 523e d8cb 93bc
000002c0: 4d80 913e 637b f33d ecfe 72bc 3add 94bd
000002d0: 189e 27bd 6896 04be af29 583d c0dd 573d
000002e0: f88b 3a3e d3f6 bf3d 3f89 4b3e 608b 143e
000002f0: 5346 813e 2f44 9dbd 30b5 cabd 570c b0bd
00000300: e474 493e aa91 483d ea1f b03d ce2d 1bbd
00000310: ddde 8bbc bb40 883c 0836 fc3d f0a1 c93d
00000320: 0293 493e c76a 3c3e 76e6 abbd 3b07 24bd
00000330: 7676 6c3e 8a14 213e 9ccb 8a3e 900d cb3d
00000340: fa76 ff3d bdb3 b83d a0ed ebbc 7cb9 40bd
00000350: a807 13bd d2df 833e 7172 8a3e 6f75 353e
00000360: 2085 133b d9c8 76bd 1a9f b23d 3093 403e
00000370: 62a0 de3d e8f4 033d c1ab 9b3d 943e 293d
00000380: 5787 0f3e 44b9 8f3d 51e7 eb3c 1f75 623e
00000390: 6013 35be df1f 6f3d cb36 203e 21b4 e03b
000003a0: d3e1 3c3e c3e0 a7bc 9f6a fa3d 7651 9a3d
000003b0: 9a0c bbbc d7c7 4abd 485e 0a3e 97d2 623d
000003c0: ec60 093d 37ca 963d 2c7c 5d3e 7b6f fc3d
000003d0: 9ca4 253e f151 623e d7d0 543e 00c7 5c3c
000003e0: d63b 513a e932 9a3d 1fb3 b23c 477b 633e
000003f0: 2db3 633e fde3 743e 40a1 e7bc aade 6c3e
-0.009576536 -0.075515464 0.14834137 0.09331845 -0.0136787165 0.1263347 0.17037663 -0.109881006
0.11904736 0.075040124 0.13187958 0.13210717 -0.028236952 -0.042576604 0.095880516 0.20608361
-0.09466315 0.12679206 0.19212423 0.13781554 -0.09207682 -0.13926952 0.011550904 0.27242482
-0.040038418 0.035129543 0.01873391 0.06971741 -0.05443179 0.08282407 -0.11062791 0.11235244
-0.14309263 0.13548766 0.061255496 0.13118322 0.32561183 0.22085254 -0.15055111 0.25004363
0.24625641 0.083405174 0.11706548 0.087237924 -0.035487954 -0.05416138 0.08686373 -0.039459012
-0.0049450165 0.09999455 -0.12611133 -0.16529007 -0.13257793 0.23483686 -0.11772937 0.11511871
0.23269267 -0.035510045 -0.027195944 -0.11863705 -0.03139797 0.19639213 0.17739286 0.23289809
0.05765811 0.1569035 0.199506 0.017028492 0.15389997 -0.1654258 0.10401681 -0.07494124
-0.07298294 0.014158015 0.1559183 0.076489486 -0.03598434 0.14365134 0.042811446 0.19236262
0.05028497 -0.031640388 0.18095139 0.075492166 -0.118924126 0.23010945 0.18456507 -0.058892384
0.0032880532 0.16263148 -0.062006615 0.03073938 -0.16801605 0.2985628 0.02177587 0.17883895
0.09460528 0.069688976 -0.009911953 0.058714505 -0.11878907 0.22690806 -0.13484618 0.09777323
0.18127093 0.23636705 0.17391704 0.019978868 -0.021217812 0.0077506267 0.057849288 -0.06120932
-0.084484115 -0.11994195 -0.0061813947 0.1491071 -0.086553276 0.12167228 0.001836842 0.30433878
0.08759517 0.02058227 -0.13305813 0.16060776 -0.01262784 -0.019676987 0.30656567 -0.03440061
0.092901535 0.03628594 -0.054114155 0.25621772 -0.028967397 0.15913893 0.28385025 0.19386244
0.15003069 0.062568404 -0.073866904 -0.059744634 0.2307759 0.15673642 0.033184364 0.0025459637
0.11818535 0.24636972 0.1571782 0.01716028 0.21884869 0.20089658 0.04256974 0.23827885
0.060487 0.012156656 0.04308217 0.19011477 0.14596672 -0.03708249 -0.027691172 0.23958984
0.24669552 -0.0016362795 0.09764309 0.1834485 0.0034488183 0.20089863 -0.050421685 -0.03885702
0.13217986 0.024359392 -0.018896267 -0.072165094 0.21191823 -0.056142163 0.20547204 -0.018041536
0.28418198 0.118887685 -0.014831286 -0.07268758 -0.040922254 -0.12948 0.052774128 0.05270171
0.18217456 0.0937325 0.19876574 0.14506292 0.25248966 -0.076790206 -0.0989784 -0.08596104
0.19673496 0.04896704 0.08599837 -0.03788548 -0.017074043 0.016632428 0.12314993 0.0984534
0.19684985 0.18400107 -0.08393566 -0.040045958 0.23092064 0.15730491 0.27108467 0.09914696
0.12473865 0.09018657 -0.028799832 -0.04705189 -0.035895973 0.257567 0.27040437 0.17720579
0.0022509769 -0.060250137 0.087217525 0.18806148 0.10870434 0.032215983 0.07601119 0.041319445
0.14016472 0.070177585 0.028796824 0.2211499 -0.17683172 0.058380004 0.15645902 0.0068574105
0.1844552 -0.020492917 0.122273676 0.07535069 -0.022833157 -0.04950699 0.13512528 0.055376615
0.033539698 0.07362788 0.21629399 0.12325951 0.16176075 0.2210157 0.20782791 0.01347518
0.00079816335 0.075292416 0.021813927 0.22214995 0.22236319 0.23915096 -0.028275132 0.23131815

model.3.weight f4 [128, 256]
00000000: 1c91 203d 650c 873c 031e ddbc 77fd 52bc
00000010: c2b3 29bd 0eb4 5b3c e515 fe3d 6c31 cf3d
00000020: a377 8c3c 6f4e 9b3d 0213 013e 3507 ad3c
00000030: 2adc f3bd 9243 eb3d e2f2 4c3d f001 803d
00000040: 47ed ddbc 5ad4 913d 08ef c4bb 79c3 533d
00000050: 5cf4 263e 7f08 d63c a927 e5ba 26f6 54bc
00000060: 183d d73d 51f1 f6bc 3c50 f4ba 0f4b cf3b
00000070: 3ba5 aabd 7035 e23d 688e 80bd c3b3 1fbc
00000080: 3afd 4dbd c9d0 2b3d 1fa5 c63d 02d5 0f3d
00000090: 4308 fb3d 6353 903d 3e90 a7bc ec3c 1f3d
000000a0: 18a2 aabc caff fabd 9f4a 573d 0e94 093e
000000b0: 5419 ab3c d793 403d dbdc 66bd 77e9 2bbb
000000c0: 810f b53b 9789 44bd f8db 093d 5518 723d
000000d0: 41d7 d5bc 200f f8bc 3a37 65bd 799d d2ba
000000e0: 99a9 4b3d 3d85 2e3d 8eb7 a73d edd8 2d3d
000000f0: acc6 b7bd c99d a33d 43ee 13bd 6fbd 863d
00000100: f8b5 c33c dc10 e63d d872 523d 5de4 3f3d
00000110: 5bf0 773d 0281 9d3d 3a39 b5bb ef74 893c
00000120: 1c65 3f3d 79fd 833d 5179 d43c 2d37 aebd
00000130: 2ce5 fcbc f231 7a3d 1df1 f33c 90c2 0b3e
00000140: 9386 79bd 7230 a7ba 51b7 3ebd e6dc 8bbd
00000150: f71f 893c 6089 bd3c 1efe 093e f14b 12bc
00000160: 8d3f 2cbd 5056 443d 0050 953d 2947 923d
00000170: b60e 8c3d bf46 2a3d 6232 8fbd 30b2 033d
00000180: 0b62 bf3d e73d c93c fc69 a2bc 3575 bd3d
00000190: 6c75 923c 3a29 113e cec3 dfbd 43e1 8ebc
000001a0: 76c1 b63d f12f a43d 1c96 97bb 4a35 2b3d
000001b0: 0e26 133d f318 733d ece2 83bb 2309 4e3d
000001c0: 664e 1bbd 46ce b33d 07fc 953d b5b6 773a
000001d0: 91d3 aebd 0048 9f3d d930 083e b141 15bd
000001e0: 5808 773b d16e 113d f604 333d 1ab4 aa3d
000001f0: 32c6 b83d 101b 873d e60f bb3d 03a6 6fbc
00000200: 9f66 083d a680 6bbb 0a1a f63d a58a b7ba
00000210: 6972 5c3b 3ade 1bbb 14e2 ea3c eaf1 a7bc
00000220: 641c 223c 653e 0abd f69e 903c 6b5b 913d
00000230: b42e bc3d 8948 1b3d f74f f43d 27b8 553c
00000240: ec52 7abc 4422 bf3c 5011 783d dc69 043d
00000250: 780d d83c f5a8 b43d e078 cabc 39ee c83d
00000260: 6e1e 8c3c c260 3ebd 0d6f b2bc 6e15 af3d
00000270: add7 7eba ba68 acbd 8cd0 1a3e 5f0f 133d
00000280: af02 783d 5019 3e3d d155 24bd f025 853d
00000290: 4457 36bd ca68 5b3d f94f 4abd 9381 243d
000002a0: bca9 d73d c7ef 7c3d dc77 b4ba 681c fc3d
000002b0: 243c 373d 2d55 ad3c 7f04 95bc 94e6 0e3e
000002c0: 86fc b23d d4d4 033d d47c 133e db17 593c
000002d0: 921b da3d 246c d13c 7c08 723b 35b1 5c3d
000002e0: b30f acbd b46c 783d ef7a 873d 1ea8 17bc
000002f0: 3392 a93c 7ced fa3c 0dfa 853c 097a a03c
00000300: e637 36bb b32e 123d 7e87 88b8 a6ac e03c
00000310: ff98 7c3d f922 d03d ed95 a03d 6d00 433d
00000320: a81e bf3d cfe3 86bc be0f 7c3b 5d69 443d
00000330: f593 6a3c 4a79 a03c 576f f03b d4f6 62bd
00000340: fb56 afbd 3ec6 923a c2c0 923d 1384 febd
00000350: 7a12 d3bb ecc3 c93b d31a 6d3c e2d4 1c3d
00000360: 9484 41bd 2500 b0bd f1cf ba3c 4747 da3d
00000370: 3c14 93bb 06c9 a9bd c94b 883d 5d16 123c
00000380: a1c1 fa3c 22b0 813d f8ef fb3b 4b90 3dbd
00000390: f2da 51bd 7421 cdba 7083 903d 4dc2 c83d
000003a0: 6c87 843c 8cd7 c63b 627c a13d 0049 153e
000003b0: d18c b73d 6609 423d cb65 e33d c3d3 b53d
000003c0: ce8a 0ebd b827 4abd af35 d73d dd93 1ebd
000003d0: 7b4c c13d 97ab 1b3d 055b c43d 569f 30bd
000003e0: 2998 cf3c e4cf 443c 706e 1f3c d8ab fa3c
000003f0: 471a 4b3d a6f3 d0bc 6920 bbbd 8c61 413d
0.039200887 0.016485402 -0.02699185 -0.012877814 -0.041431196 0.013409628 0.1240652 0.10116848
0.017146891 0.075833194 0.12604907 0.0211216 -0.11907227 0.114874974 0.05003632 0.062503695
-0.027090682 0.07120581 -0.00600994 0.05170009 0.16304153 0.026127098 -0.0017483133 -0.0129981395
0.105096996 -0.030144366 -0.0018639634 0.0063260864 -0.083322965 0.11045349 -0.06277162 -0.009747448
-0.050290324 0.04194716 0.09699463 0.03511525 0.12257435 0.07047155 -0.020454522 0.03887646
-0.020829245 -0.12255819 0.0525614 0.13435385 0.0208861 0.04701599 -0.056362968 -0.0026231685
0.00552553 -0.04798278 0.033657044 0.059105236 -0.026103618 -0.03028065 -0.05596087 -0.0016068659
0.049722288 0.042607535 0.08189307 0.042443205 -0.089734405 0.079890795 -0.036115896 0.065791
0.02389048 0.112336844 0.051379055 0.046848644 0.060531955 0.07690622 -0.0055305036 0.016779391
0.046727285 0.064448304 0.025936754 -0.08506618 -0.030870996 0.061082788 0.029778058 0.13648438
-0.060919356 -0.0012755527 -0.046561543 -0.068292424 0.016738875 0.023136795 0.13475844 -0.008929239
-0.042052794 0.047933877 0.072906494 0.07142479 0.068387434 0.041571375 -0.06992032 0.032152355
0.09344872 0.02456565 -0.019825928 0.09250871 0.017878257 0.14175883 -0.10926019 -0.017441398
0.089236185 0.080169566 -0.0046260487 0.041798867 0.035924964 0.059349965 -0.004024854 0.050301682
-0.037916563 0.08779578 0.07323461 0.0009449528 -0.08536447 0.07777405 0.13299884 -0.0364396
0.0037694182 0.035506073 0.043705903 0.08335133 0.09022178 0.06596959 0.09133892 -0.014626983
0.033300992 -0.0035934835 0.12016685 -0.0014003111 0.003363753 -0.002378358 0.028672256 -0.020501096
0.009894464 -0.03375091 0.017653923 0.07097515 0.091885954 0.03791097 0.119293146 0.013044394
-0.015278559 0.023331769 0.060563385 0.032327518 0.02637361 0.088212885 -0.02471584 0.09811062
0.017104354 -0.046478994 -0.021781469 0.08549009 -0.0009721469 -0.084184125 0.15118617 0.03590333
0.060549434 0.04641086 -0.040120903 0.06501377 -0.044516817 0.05356673 -0.049392674 0.040162634
0.10530421 0.061752107 -0.0013768631 0.123101056 0.04473509 0.021158779 -0.01819062 0.13955146
0.08739571 0.03218539 0.14403087 0.0132503165 0.1064979 0.02556426 0.0036931327 0.053879935
-0.08401432 0.060650542 0.066152446 -0.009256391 0.020699596 0.03063082 0.016354585 0.01958944
-0.0027804314 0.035689067 -6.510223e-05 0.027426075 0.061669346 0.101629205 0.07841096 0.047607828
0.09332019 -0.01646605 0.0038461532 0.047952045 0.014317502 0.019589085 0.0073374915 -0.055411175
-0.08561512 0.0011197997 0.07165672 -0.12427535 -0.0064414116 0.006157389 0.014471727 0.03828896
-0.047245577 -0.085937776 0.022804232 0.10658126 -0.004488496 -0.08290295 0.0665508 0.008916465
0.030609908 0.06332423 0.0076885186 -0.046280187 -0.051234193 -0.0015650229 0.0705632 0.09802685
0.016177855 0.0060681757 0.07885052 0.14578629 0.089624055 0.047372244 0.111034 0.08878281
-0.034800343 -0.049354285 0.10508286 -0.038715232 0.094384156 0.038005438 0.09587673 -0.043120705
0.02534111 0.012012456 0.00973092 0.03059952 0.049585607 -0.025506806 -0.09137041 0.04721217

model.3.bias f4 [128]
00000000: 3840 e43d 7d84 923c dbf4 a23d ceb5 c23d
00000010: d7e2 9dbb 0b76 9f3d 3163 3fbd eeda d33d
00000020: dbef b13d 199c 8b3d 68c8 a33d 371a 053e
00000030: e5a5 163d ce2c f73d 3e32 9a3c 057b 8c3d
00000040: d976 bf3d 3450 aa3c e674 ca3d 0915 9e3c
00000050: f3e3 c03d 321b 693d d839 d73d 725c 48bc
00000060: d35c 8f3d ded4 be3d 711b 113d f5ef d03d
00000070: 4d44 ffbc 4963 983b 237b fdbc 067f 3ebc
00000080: 5e6a 043e 1bc3 82bc 5717 443c 5d5b 023e
00000090: e1a9 ff3d 3e69 883d 78ba 1b3d 016f ca3d
000000a0: 752b 92bc f42c 863d 81de 363d 2561 f83d
000000b0: e6e5 4d3d 69f0 933d 206f 7e3d 58e4 ca3c
000000c0: 556d e83c b5e0 6f3d 5e46 ea3d 603e 8e3d
000000d0: 93ef e33d ccfd 07bc 3132 e13d 54c0 de3c
000000e0: e438 b9bb 52b6 1e3d f4be fd3d c3d3 043e
000000f0: f5e7 9a3d 06a5 e63d b83b 043c 1dd7 be3d
00000100: 7363 a83d ba23 383d dce1 073e e841 893d
00000110: 5918 dc3d 611e 1d3d a2d8 813c 53c9 46bc
00000120: a0d3 e33d 2be8 f93c 5941 983d cc9f 993d
00000130: cce3 4c3d 5c2c 843d a365 963c 390e 013e
00000140: 7530 ab3d c97e 1cbc 4558 743d 4168 6c3d
00000150: 1ab7 223d 6ec9 ba3d 5924 fa3d 4760 dd3d
00000160: 25af e33d 002a 043e 76cf 1ebd 8bc2 e03d
00000170: 2ff8 a53d ac0b b63d b301 a63d 1635 c33c
00000180: 5025 b53d 6c78 e03d c1cb 923d 4f10 213d
00000190: 5bc1 943b 1a9e 2ebd e91d ea3d 0573 043c
000001a0: 25cf 983d 9992 76bd af1e c43d e46f 413d
000001b0: 45cb ec3c 5e86 093e 53c6 dd3d c58b bf3c
000001c0: e076 bfbc af29 683c 86b9 ec3d ca2e d8bb
000001d0: cad6 b83d 62b9 103e 00bc ae3c 0a9a d23d
000001e0: 5821 d23c 6663 d93d 0fc7 473d e0a5 f43c
000001f0: c773 d33d 783d 74bd 2166 b23d 91cc f33d
0.11145061 0.017885441 0.07956859 0.09507333 -0.004818301 0.07786187 -0.046725456 0.10344492
0.08688327 0.06816883 0.07997209 0.12998281 0.036779303 0.12069093 0.018822785 0.068594016
0.0934884 0.020790197 0.09885578 0.01929714 0.09418478 0.0569107 0.1050908 -0.012229072
0.07000127 0.09317945 0.03542656 0.10202018 -0.031160498 0.0046505076 -0.030942505 -0.011626964
0.12931201 -0.015962174 0.011968455 0.12730165 0.12483574 0.06660698 0.038019627 0.098844536
-0.017842988 0.06551543 0.04464579 0.12127904 0.050268076 0.07223589 0.062117696 0.024767086
0.028372446 0.058563907 0.11439203 0.06945491 0.111296795 -0.008300256 0.109959014 0.027191319
-0.005652534 0.038748093 0.12389937 0.12971406 0.075637735 0.112619445 0.008070879 0.09318373
0.082220934 0.044955947 0.13269752 0.06702024 0.107468314 0.03835905 0.015850369 -0.01213296
0.11124349 0.030506214 0.07434339 0.07501182 0.05002193 0.064537734 0.018359011 0.12603082
0.08358852 -0.009551712 0.059654493 0.05771661 0.0397254 0.09120451 0.12213964 0.10809379
0.111173905 0.12906647 -0.03877207 0.10974606 0.08103978 0.08888945 0.08105793 0.023829024
0.088450074 0.10960469 0.07167769 0.039322194 0.0045396513 -0.042631246 0.11431486 0.008084063
0.07461385 -0.0601984 0.09576165 0.047225848 0.02890552 0.13430163 0.10828843 0.023382077
-0.023372114 0.014170094 0.11558823 -0.0065973746 0.09025343 0.14133218 0.02132988 0.10283287
0.025650665 0.10614662 0.04877382 0.029864252 0.10324817 -0.059628934 0.08710886 0.11904252

model.6.weight f4 [64, 128]
00000000: 6108 3f3d 73a7 dd3d 1822 843c a9f4 973a
00000010: 4bd4 0dbc e3fa 6bbd 7e1b 423b 789e 29bc
00000020: a77e 073e d4e3 94bd af26 62bd 1333 b03d
00000030: a3ac 953d ba7e ec3d eb5f dabc b5bb d13d
00000040: 3335 233d 0ab5 eabd a770 b43d c083 8d3d
00000050: 2305 80bc 4c75 583d cdca 6f3d 9740 8d3c
00000060: 442a 10bc 7613 003d d1f3 293d 096b 283c
00000070: 08a3 62bd 3907 2ebd 4991 f03b 76aa 3bbe
00000080: 8a56 59bd a5cc 403d cdf2 bcbd 8640 903d
00000090: 8dec 853d 1dca 81bd 27bf 873d b835 b43b
000000a0: 4c2e 513d a4df 49bc 6cea d3bc 4bff a7bc
000000b0: bc03 c2bb 403d 1ebd 71ca 3cbd bab8 493d
000000c0: b441 4cbd c66b 923d ec68 c4bc ef46 833c
000000d0: 0aa6 52bc 6a1d 123c a1e8 02be 6e18 1f3e
000000e0: 1dbb 963c 8313 123d c5b6 313c e180 d43d
000000f0: 5f7b 05bd fe80 9f3d 2ab4 e13c dedf 70bc
00000100: 7500 38bc 36af a53d 5084 10be ee4f 54bd
00000110: f58d d13d fd6a c43d a0c7 603c fee7 00bc
00000120: 741f 4c3c 3d7f 943d 6454 b23d c892 8b3c
00000130: 54c7 0e3e fb04 1cbd 9999 0b3d a4d4 773d
00000140: 10b8 293e ec94 bc3d 55a6 25bc eb3b 313c
00000150: 8115 493d 9a68 acbc 7159 e73d 7674 c03c
00000160: 6a83 6dbd b572 bd3d df5a 6a3d 0e05 49bd
00000170: 1358 a9bc 8c89 43bd 3fdf 3d3d 9e87 1c3d
00000180: a6bf 15be 69f9 343d 36bb 693d 21fe da3c
00000190: 6abe 24bd 757d 23bd e9d3 f93c e279 be3d
000001a0: 3482 b33d 4f6d ecbc ec6e d53d 062f cf3b
000001b0: fabc ee3c cd40 ab3d 5edd 1cbe 6275 e33d
000001c0: b668 8f3d 2f7b ae3c b963 a43d 86cf 413d
000001d0: bf2e bdbd 8fcb 703d 3d4d 913d 9601 bb3d
000001e0: 7cd8 2a3d 8bb0 aebd 33a5 5c3d ea0d 9ebd
000001f0: 1a04 7bbc e25a e53c d3af 033e 0235 b5bc
00000200: c623 c33a 3b3f 92bd b486 373d 48ef bd3b
00000210: 8658 893d 4eda 60bb ad79 e03c 9b6e c2bd
00000220: b79f 2b3d 7677 a0bd efe8 57bd 9f9d 08bd
00000230: 8fb9 133c 273e 43bd 6ad5 1f3c 5bc5 8dbd
00000240: 3ac6 b0bd 3872 c2bc 677e 593d 80e9 76bc
00000250: b37c 36bc 06f8 71bd 9046 90bd d091 4fbd
00000260: 9197 c0bd b5d6 99bc 1319 d2bd cc16 c5bd
00000270: 1fdf e2bc e11c 70bd 8653 803d c230 2f3d
00000280: ffda 21bc 8959 9bbd 5234 f2bc d588 a6bd
00000290: 2034 dbbc e53a 5d3a 3fd5 e63c 1ca5 efbc
000002a0: aca0 2fbd 44a6 973d 528a 603d 14bb 17bd
000002b0: 73d9 0fbd ce24 e0bd 6f43 bdbd 184a e13c
000002c0: dabc 473d e889 40bd 3216 893c e123 0cbc
000002d0: 79ad 01bd f2ba 9fbd ed0b 453d 0bca 7b3d
000002e0: c88f 10bd 6520 0abd e2b8 6dbd 5184 8dbc
000002f0: 9caf 9d3c 527c d9bc f9ab 7dbd 8fa3 b8bd
00000300: 0d86 50bd 4ee6 8ebd 5066 fcbb 7e4e e5bc
00000310: 29f9 20bd 997f 933c b48b df3c 4b12 8abd
00000320: d2f6 2ebd 8469 07bd 9d39 573d 8d4a 8cbd
00000330: 126b 403d d4f3 a0bc 452e c5bd 504f f73c
00000340: 8743 91bd f96c 41bd 4b10 223d 0af1 513c
00000350: 2000 91bb bd6e 4c3c efb7 79bc 8037 723d
00000360: deb0 0b3c e85a 90bd 5d1b 16bd 594e 453d
00000370: 97ce 063d 0b4b 54bd bdc5 16bc d3a3 6cbc
00000380: 2340 263d c027 4e3d dd1b b03c b8a1 253d
00000390: 6a9b 1e3d ae9a 71bc 131b e93c 8afa 833c
000003a0: 6d53 50bb fff3 8bb3 ad4c 1fbd 0ad4 77bc
000003b0: 3d55 a2bc 7a07 43bb 01a5 acbd 0a1f 93bd
000003c0: 4a84 863c 1b3b 0a3b 9388 59bb df88 9b3d
000003d0: 7eb5 5fbc 0df8 77bd 55ed 20bc ebf6 fcbb
000003e0: 85c3 f3bc 4dce dfbc d258 583b 9db5 8cbd
000003f0: f209 033d c2e0 4dbd 53d4 f0bc eaaa 273d
0.04663885 0.10822954 0.016129538 0.00115933 -0.008656572 -0.05761231 0.0029618437 -0.010352723
0.13231908 -0.07270017 -0.055212673 0.08603492 0.073083185 0.11547609 -0.026657065 0.102408804
0.039845657 -0.11460312 0.08810549 0.06909895 -0.01562745 0.052846238 0.058543015 0.017242713
-0.008799139 0.03126856 0.041492287 0.010279425 -0.05533126 -0.042487357 0.007341538 -0.18326744
-0.053061046 0.047070164 -0.09225998 0.07043557 0.06539259 -0.06337378 0.06628256 0.005499568
0.051069543 -0.0123213865 -0.025868617 -0.020507475 -0.0059208553 -0.03863263 -0.0460915 0.049248435
-0.049867347 0.071494624 -0.023975812 0.016025035 -0.01285697 0.008918146 -0.12784053 0.15536663
0.01839977 0.03566314 0.010846798 0.10376144 -0.03258836 0.07788275 0.02755173 -0.014701812
-0.011230578 0.080900595 -0.14112973 -0.05183404 0.10232154 0.09590719 0.013719469 -0.007867811
0.012458671 0.07250831 0.087075025 0.017037764 0.13943225 -0.038090687 0.03408203 0.060505524
0.1657412 0.09208092 -0.010110457 0.010817508 0.049092773 -0.021045972 0.112963565 0.023493033
-0.057986654 0.09250394 0.057215568 -0.049077086 -0.02067188 -0.047738597 0.046355482 0.038215272
-0.1462389 0.04418317 0.057063304 0.026732506 -0.040220656 -0.039914567 0.030496554 0.09300591
0.08765069 -0.028860716 0.10421547 0.0063227443 0.029142845 0.08361969 -0.1531882 0.11106373
0.07002394 0.021298973 0.08026833 0.04731705 -0.09237432 0.05878788 0.0709481 0.09131162
0.04171036 -0.08529767 0.053868484 -0.07717498 -0.015320802 0.027997438 0.1286004 -0.022120003
0.0014887981 -0.071409665 0.044806197 0.005796347 0.06706338 -0.0034309807 0.02740177 -0.094937526
0.041900363 -0.07835285 -0.052712377 -0.033353444 0.009016409 -0.047666695 0.009755472 -0.06922408
-0.08631559 -0.023736104 0.053099062 -0.015070319 -0.011138129 -0.059074424 -0.07044709 -0.050676167
-0.09403909 -0.018779138 -0.10258689 -0.09623489 -0.027694283 -0.05862129 0.06265931 0.04277111
-0.009878873 -0.07585437 -0.029565964 -0.081315674 -0.026758254 0.0008439257 0.028177856 -0.029253535
-0.042877838 0.074047595 0.054819413 -0.037043646 -0.035119485 -0.1094452 -0.092413776 0.027501151
0.048764087 -0.047006518 0.016734216 -0.008553476 -0.031659577 -0.07799329 0.048107076 0.06147198
-0.03529337 -0.0337223 -0.058037646 -0.017275007 0.019248776 -0.026548538 -0.061931584 -0.09015571
-0.05090909 -0.06977521 -0.0077026263 -0.02799153 -0.039300118 0.01800518 0.027288295 -0.0674177
-0.042715855 -0.033059612 0.05254518 -0.06850157 0.04697711 -0.019647516 -0.09627966 0.030189186
-0.07092958 -0.047223065 0.03956632 0.012813816 -0.0044250637 0.012477574 -0.015241607 0.05913496
0.008526055 -0.07048589 -0.03664719 0.04817042 0.032911863 -0.05182938 -0.009202418 -0.014443356
0.04058851 0.050330877 0.021497661 0.04043743 0.038722433 -0.014746351 0.028455293 0.016110677
-0.0031788007 -6.5170745e-08 -0.038891483 -0.015126238 -0.019816035 -0.0029759095 -0.084299095 -0.071836546
0.016420502 0.0021092359 -0.0033192977 0.075944655 -0.013654111 -0.060539294 -0.009822209 -0.0077198646
-0.029756317 -0.027320052 0.0033011925 -0.068705775 0.031991906 -0.050263174 -0.02939812 0.04093448

model.6.bias f4 [64]
00000000: 1f85 7b3d 83ba 5fbc 0b11 f5bc a8c1 d33d
00000010: 68f9 c5bd 92d3 173d e8ca 9bbd 83d6 1f3d
00000020: 1cef 193d 24ec 523d 7180 733d e6dd 203d
00000030: 09ec cc3d 1a23 173c 145e c93d 670b 843d
00000040: badc cd3d f632 7d3d e402 aa3d 9913 a1bb
00000050: c058 7dbd 9237 e138 741b 103d 791f 93bb
00000060: 30d9 083d ff77 7b3c 4e91 c03c 567a c43d
00000070: cec6 983d 3e3d cabc e4ad 313c c4b1 bf3d
00000080: 32bd 46bd 3db7 c33d 7eda 253e e72e 133e
00000090: b93c 123d e1ce a03d c1a6 d8bd e9bd 0a3e
000000a0: 8e81 8abd 4e1e 123d 3d4b 733c d5a8 f13d
000000b0: 633d 583d 3505 ee3d 429a e93d 639e 123c
000000c0: 309d 6ebc 0b99 c33d f354 1dbd b7b5 713d
000000d0: c3b1 32bc d4da cb3d ee9d 7f3c c4e5 c13d
000000e0: df02 be3d 294d be3c c682 5a3d baf4 c0bd
000000f0: c44f df3d 0bba 033e 12c9 da3d 6822 c53d
0.06140625 -0.013655308 -0.029915353 0.103396714 -0.09666711 0.037067004 -0.07607061 0.039022934
0.037581548 0.051494732 0.059448663 0.03927412 0.10005958 0.009224677 0.09832397 0.06447487
0.10051866 0.06181618 0.083013326 -0.0049156663 -0.061852217 0.00010739187 0.03518243 -0.004489836
0.03341025 0.0153484335 0.023506787 0.09593646 0.07459794 -0.024687406 0.010844681 0.09360078
-0.048520274 0.09556434 0.1619663 0.1437336 0.03570244 0.07851959 -0.10578681 0.13549007
-0.06762992 0.035673432 0.014849481 0.1179978 0.052792918 0.11622087 0.114063755 0.008948895
-0.014563844 0.09550675 -0.038411092 0.059011187 -0.0109066395 0.099538475 0.015601618 0.094676524
0.09277891 0.023230152 0.05334737 -0.09421678 0.10903886 0.12863939 0.10682882 0.09625703

model.9.weight f4 [3, 64]
00000000: 0600 9a3d 911b dbbd 9e57 dfbb 75a5 083e
00000010: 5533 febc 7f8c ddbd 49a9 eebd 6a24 143d
00000020: 032b 0d3e d56a 303e dd7c 203e df39 32be
00000030: 354c 193e 79e5 143e 388a 523d a62d 29be
00000040: 1e42 313e 91af 05be 4607 e63d a522 3ebd
00000050: 387d f2bc 997a af3d 7456 b0bd 862f 3b3e
00000060: 95c5 28bd 7214 d3bd 04ec b53d 384c 573d
00000070: 7370 933d 3046 d73b 09c0 053d e81e 913d
00000080: 67f6 373c e301 d03d e460 e33d 3986 fc3d
00000090: a0a6 28be dda3 fa3d 4229 e83c 0663 043e
000000a0: 3d93 f5bd 3c09 193e 4ef7 af3d 9403 0fbe
000000b0: 0255 9c3d 5305 6fbd 9b16 f83d e2e9 f33d
000000c0: 6483 eebd 86ec 403e 1741 99bd e3ac fd3d
000000d0: c07c e83d acd9 f23d 482b d5bc 536c 2a3e
000000e0: e122 d3bd c9ed 133e ef47 c1bd 650c e6bd
000000f0: e3fb a9bd 9d01 1f3e 5bc0 d2bd 0851 383e
00000100: 862f 38bd 3475 a4bc b0af 5bbe 188c 46bd
00000110: 0d61 36be 2df3 ac3d d4dd 79bd d4ba 31be
00000120: aeec 323d d551 73bd 4237 a2bd a426 093e
00000130: c23b 403d 4b50 42bb 705b 273e 0e8e 7a3d
00000140: b08c ff3d 9852 db3c fddf 91bd 13cf c3bd
00000150: b96b adbd 5213 993c 4104 12be 1ac1 833d
00000160: edf6 4abe 8cb2 9a3b e089 073e 1fb5 1c3e
00000170: 5789 18be fb94 12be 86b7 ee3d a02d 153d
00000180: 7c93 1dbe ee62 ecbd 531a b83d 68e9 eb3d
00000190: 7b11 af3d 5598 08bc 99aa c9bc 8304 6abd
000001a0: 13fa 43be 081a f73d a2ef d33b 62aa 01bb
000001b0: e8ab 0cbe 3d0d 5b3e 9d84 02bc dba9 103e
000001c0: c441 283d 901b cc3d 3d6e 8d3d 1e9d afbd
000001d0: 960d d8bb 28ed b13d 17c1 68be 9366 e0bb
000001e0: 2f89 e3bd a3e4 b03c b999 023c a786 00be
000001f0: dc08 88bd 6707 813c 7fb4 283c a1e6 a7bd
00000200: 4669 bfbc 2cb5 cf38 82eb 7ebd ff6d 0c3c
00000210: e76f c2bc 53f1 9c3d 2b85 d6bd 848b 8d3d
00000220: 2627 983c 7a7f d53d c072 173d 9f5a 5fbd
00000230: ccde b3bb d00f c83d 7d9e d03d 6892 18bd
00000240: ca24 ec3d 9558 043b cff0 5ebc 73a7 5f3d
00000250: 716f 41bd 029f 573c 5308 f3bc 2480 02bd
00000260: d3d5 a53d 1c85 103e 27d5 2f3d 5b3a fa3d
00000270: f53e 3a3c 5d6a 013d 448b 80bc 1198 f83d
00000280: 7dab afbd 15b6 f83c 42ba 9bbc 98fe d93c
00000290: a2ca aa3d 56bd 8abb 6dcb b9bd 944b df3d
000002a0: 93da a5bd 2e12 123c cca0 9b3c a5a8 fc3d
000002b0: 6788 a93d 34d1 173e 6da7 d83d 7d45 8f3d
000002c0: 3f2e 52bb 2d26 e93d 9d4e 61bd dc2b adbc
000002d0: d6ce b63c da6f a33c ceb4 853b f94e e83d
000002e0: f401 cd3c 1698 e73b 8f51 9fbd 496f bc3b
000002f0: 5eee 133e 789f a33d 3803 59bc 193f bcbc
0.07519536 -0.10698617 -0.0068158647 0.13344367 -0.031030336 -0.10817813 -0.11653382 0.03616754
0.13785939 0.17228253 0.15672632 -0.17404889 0.14970477 0.14540662 0.051401347 -0.1652132
0.17310378 -0.13055255 0.11231856 -0.04641976 -0.029600725 0.085683055 -0.086102396 0.18279848
-0.041204054 -0.10306634 0.08882907 0.052562922 0.07199182 0.0065696463 0.032653842 0.07085973
0.0112281805 0.1015661 0.11102465 0.123302884 -0.16469812 0.12238286 0.028339986 0.129284
-0.11990974 0.14944929 0.085920915 -0.13966209 0.076334015 -0.058354687 0.12113687 0.11909844
-0.116461545 0.18840227 -0.07483118 0.12386491 0.11351919 0.11857924 -0.026021615 0.16642885
-0.10309387 0.14446177 -0.09437548 -0.11232833 -0.08299997 0.15527959 -0.10290595 0.17999661
-0.044967197 -0.020075418 -0.21453738 -0.048473448 -0.1781046 0.084448196 -0.061002567 -0.17356426
0.043682747 -0.059404213 -0.07920696 0.13393646 0.04693199 -0.002964991 0.16343474 0.06117063
0.12478006 0.026772782 -0.071228005 -0.09560981 -0.08467812 0.01868597 -0.14259435 0.064333156
-0.19820757 0.0047209915 0.13236189 0.15303467 -0.14896141 -0.14314644 0.11656098 0.036420465
-0.15388292 -0.11542307 0.08989396 0.11519128 0.08548256 -0.0083371 -0.02461748 -0.05713321
-0.19138364 0.12065512 0.0064677754 -0.0019785394 -0.13737452 0.21391769 -0.007966188 0.14127295
0.041078344 0.09966195 0.06905792 -0.085748896 -0.0065934164 0.08687812 -0.22729908 -0.0068481653
-0.1111015 0.021593397 0.007971221 -0.12551366 -0.06642315 0.0157506 0.01029694 -0.08198286
-0.023365628 9.904275e-05 -0.062236317 0.008571147 -0.023735 0.076632164 -0.104746185 0.06911376
0.018573355 0.10424705 0.03697467 -0.054529782 -0.005489206 0.09768641 0.10186479 -0.037249
0.115304545 0.00201944 -0.013607218 0.05460305 -0.04722542 0.013160469 -0.029667055 -0.031860486
0.08097424 0.14113277 0.042927887 0.12218162 0.011367549 0.031595577 -0.015691407 0.12138379
-0.08577631 0.030360261 -0.019009713 0.026610658 0.083394304 -0.0042339964 -0.090720035 0.10903087
-0.0809833 0.008915467 0.018997572 0.12336854 0.0827797 0.14825898 0.10578809 0.06995676
-0.0032071022 0.113842346 -0.055006612 -0.021139078 0.022315424 0.019950796 0.0040803915 0.11343188
0.025025345 0.0070676906 -0.07779228 0.005750571 0.14446399 0.079894006 -0.013245396 -0.022979306

model.9.bias f4 [3]
00000000: ef48 adbb 60ea b8bc 0347 33bc
-0.0052882354 -0.022572696 -0.0109422235
